Demo/CIFAR_Classifier/model/LeNet_parameter.pt (torch_old, 249664 bytes, 10 tensors)

conv1.weight f4 [6, 3, 5, 5]
00000000: a738 173c 1396 7f3d 0c2b 953d 3093 15be
00000010: 13ee 883a ddd5 213c dd21 4abd 3a8d 173d
00000020: 23e5 013e ef40 813d 875a babd a956 03be
00000030: ceda 083e 816c 1e3d d6ac efba 6eb0 943d
00000040: bee7 e8bd cf9a 313e 971a 9a3d 4ab1 353d
00000050: a048 d0bd 145a 12bc 5257 ef3d e4d6 533e
00000060: 5d5b 16bc f39b e33c 4709 933c 0b2f c73c
00000070: 71bd 20bd b059 063c aad2 99bc 8f79 91bd
00000080: d95a 1c3e 43d5 1cbd 419b d63b d024 ef3c
00000090: 8651 e0bd f4a0 073e 6db6 6c3e a322 a6bc
000000a0: cd8e aabc ce6d eebd 2014 4e3e ae02 533e
000000b0: 4d77 c83d a856 cb3c fb16 573d 935e c33d
000000c0: eec5 593e 4e79 80bd 29c9 27bd 2881 e2bd
000000d0: 9c98 e2bd e91d 4cbe 59c9 10bd d29f e9bc
000000e0: 54a7 b3bd a3e5 683c f803 b5bc 42b0 cbbd
000000f0: 14d3 2a3c 4693 50bc 5115 c0bc 57d2 f83d
00000100: ac4d 3bbe c67f 69bd 11e4 14be 419e 17bd
00000110: d8cb 183e 87ee 0abe d96a 0c3d 5b20 46be
00000120: 3cfb 2b3c cef0 eb3d d2d1 3cbe 355a 90bc
00000130: 479c c33d 4cd9 703d 725a 063d e765 1b3e
00000140: 34ac 4abe dd24 80be 6130 8cbe 885f 45bd
00000150: 0fd0 31bb 0695 2cbe cecd 98be ee77 d8be
00000160: 514a 38be 6aa9 8cbe 9e17 70bd a184 40bd
00000170: 7fa4 7abd 84ab d9bd 1b2d d33d 3a4a 143e
00000180: ac7f 853e 2fa7 663e 0200 aa3d e402 b23d
00000190: b74a b63b bf9a ec3d 1b95 5c3e fd27 6e3e
000001a0: 7acb 1b3e 3278 94bd a2b2 11be c142 24be
000001b0: 0725 efbc 5c57 02be 39ad 1bbe 6e86 cdbd
000001c0: 4da3 e5bd 18e7 81be c434 f9bd 19c2 50bd
000001d0: 7a28 4bbc 3ba4 c33d f469 1e3c e4e7 6cbd
000001e0: 0f0b e13d c5e1 013e 37c0 9d3e fc70 9c3e
000001f0: 64e3 873e c2e0 303e 1d47 583e 74ed c93d
00000200: eea7 0e3e 93c0 af3c a3f5 253d 74dc 9b3d
00000210: cb4c 86bd 1ab6 01be 5a31 e3bd 16ff 0ebe
00000220: adaf 30be 814d b8bd 7327 f6bd 9030 c4bc
00000230: b470 c9bc a723 d8bb 5e86 76bd cbf0 d13d
00000240: 5dae babc d6c9 573d 9bed fa3d 83a3 433e
00000250: 8d95 4e3e 606d 4b3e 389f 78bd 9eb9 14be
00000260: 3d52 39be 9c9a b43c 80fb 5e3d 67f5 51bd
00000270: a64e 88be 2f70 48bc a25a 333e 0ec6 f33c
00000280: 81ff 6ebe b8f5 80be 8149 af3d 1bd1 253e
00000290: 46e6 323e 3ca1 a6bd 3df5 33be a4e1 08bd
000002a0: 7918 e2bc 2bf9 683e b8c6 aebd ccb3 09be
000002b0: c01b 733d 4c08 0b3c dfaf 1a3e f8d1 4fbd
000002c0: c46e 35be a44c 913c 8dab 023e aca0 233e
000002d0: 9714 f2bd c20b 8abe a5c7 4e3d c383 3b3d
000002e0: 90bb 803d 3e0f e1bd 1f7f 1bbe 4eb8 44bd
000002f0: 4c15 863e 23d5 8f3d 8f08 f6bd 04b1 1fbd
00000300: dfd7 bc3d 6565 c43c 584d 873e ef06 f23c
00000310: e6cf d4bd 37c8 eebc 0aba f83d ad59 693e
00000320: 8f4e 27be ce2e 6dbd c50a 82bd a267 e23c
00000330: ec17 37bd 07b6 b6bd 5bd6 a2bd 0574 fcbd
00000340: 28af 8c3e 100d 683e bdcd 00be 9c3e 2abe
00000350: 6515 1ab9 cb36 cc3d 246a ca3d 7ce9 22be
00000360: f5d8 68be 0638 9b3d f77a 053e 39ee dd3d
00000370: 3936 4fbd 9bff 0cbe 3af4 94bd 1a2d 8d3d
00000380: 71ca 3e3e 1d0a d83d efad a0bc 4043 0b3e
00000390: d64a 5b3e d3f4 3b3e e428 043e a509 503d
000003a0: 47aa 553d e788 033e 4669 8a3e c6e4 f23d
000003b0: f375 f0bd 44ba 133d 1a1b 323e bde1 a43d
000003c0: 5377 ad3d 568e 13be cb77 dbbc b82f e03d
000003d0: c6f0 ec3d db5c c4bd 105b 06be 5bcb afbc
000003e0: 92b2 7bbd 1b50 d53d ebc5 cebd e21a bdbd
000003f0: 9dd1 4abd 1bf6 f43c 5e7d b1bd b61f ccbd
0.009229816 0.06239898 0.07283601 -0.14606929 0.0010446928 0.009877649 -0.0493487 0.03699992
0.12685065 0.06311213 -0.09099298 -0.12826027 0.13364717 0.038677696 -0.0018285762 0.07260214
-0.11372326 0.17344211 0.07524603 0.04435853 -0.10170102 -0.008932609 0.11686577 0.20687443
-0.009177056 0.027784323 0.01794876 0.024314424 -0.039243165 0.008200094 -0.01877721 -0.071032636
0.1526903 -0.03828932 0.0065492694 0.029192358 -0.10953049 0.13244992 0.23116465 -0.020280188
-0.020820046 -0.11642037 0.20124865 0.20606491 0.0978838 0.024821594 0.05251215 0.09539523
0.2126691 -0.06273137 -0.040963326 -0.11059791 -0.11064264 -0.19933285 -0.03534827 -0.028518591
-0.0877215 0.014214906 -0.022096619 -0.09945728 0.0104263015 -0.012730425 -0.023447664 0.12149494
-0.18291348 -0.05700662 -0.14540125 -0.037016157 0.1492151 -0.13567553 0.034281585 -0.1934828
0.010496911 0.11520539 -0.18439415 -0.017621139 0.09551292 0.05880098 0.0328011 0.15175591
-0.19792253 -0.25028124 -0.2738066 -0.04818681 -0.002713207 -0.16853723 -0.29844517 -0.42279
-0.179971 -0.27473003 -0.058616273 -0.047001485 -0.061192032 -0.10628417 0.103113376 0.1448144
0.26073968 0.22524713 0.08300783 0.086919576 0.005563106 0.11552953 0.21541254 0.23257442
0.15214339 -0.07249488 -0.142283 -0.1604109 -0.02919246 -0.12728637 -0.15202798 -0.10035406
-0.11212788 -0.25371623 -0.12168267 -0.050966356 -0.012399787 0.09552809 0.009668816 -0.057838336
0.109884374 0.1268378 0.3081071 0.3055495 0.26540673 0.17273238 0.21120878 0.09859744
0.13931248 0.021454131 0.04051746 0.076104075 -0.06557616 -0.12667122 -0.110933974 -0.13964495
-0.17254515 -0.08999158 -0.12019243 -0.023948938 -0.024589874 -0.006596047 -0.060186736 0.10251006
-0.022788221 0.05268272 0.12252351 0.19105344 0.20174237 0.19865942 -0.060698718 -0.14523932
-0.18097778 0.02204638 0.054439068 -0.051259425 -0.26622504 -0.012233778 0.17515042 0.029757526
-0.23339655 -0.2518747 0.08558942 0.16193049 0.17470655 -0.08136222 -0.1757402 -0.033418313
-0.02759956 0.227513 -0.08533996 -0.13447493 0.059352636 0.008485865 0.15106152 -0.05073735
-0.17718035 0.01773674 0.12760754 0.1597926 -0.118203335 -0.26962095 0.050483365 0.045779955
0.06285775 -0.10989235 -0.15185212 -0.04802733 0.26188123 0.070230745 -0.12013351 -0.038987175
0.09220862 0.02397413 0.26426196 0.029544322 -0.10391216 -0.029148204 0.12144859 0.22788115
-0.16338561 -0.057905965 -0.063497104 0.027637307 -0.044700548 -0.08921438 -0.07951041 -0.123268165
0.27477384 0.22661233 -0.12578483 -0.16625446 -0.00014694555 0.099713884 0.09883526 -0.1590938
-0.22739013 0.07579045 0.13035189 0.10836453 -0.05058882 -0.13769381 -0.07273145 0.06893368
0.18631913 0.10548804 -0.019614188 0.13599873 0.21415266 0.18355112 0.12906224 0.050790448
0.052164342 0.12845193 0.27033442 0.11860041 -0.11741247 0.03606631 0.17393151 0.08050869
0.08470025 -0.14409766 -0.02679052 0.10946602 0.115693614 -0.09588023 -0.13120675 -0.021459272
-0.061449595 0.104156695 -0.100963436 -0.09233643 -0.04951631 0.029902508 -0.0866649 -0.09966986

conv1.bias f4 [6]
00000000: a2ab a03e a238 233d e77e 6e3e f0e6 72be
00000010: 9e53 c0bc 370a ca3e
0.31380945 0.03984893 0.23290597 -0.23720908 -0.023477372 0.39460918

conv2.weight f4 [16, 6, 5, 5]
00000000: 7922 90bd 5a64 373b 5c37 403c 7fea 6c3d
00000010: 33ae 15bc e217 89bc 3b2e 19bc aa56 e43c
00000020: a28b 06bd 6f0f 4f3c 3cb2 223c a97d b2bc
00000030: b110 7fbd dfff 6fbc e09b 84bc 82a2 913d
00000040: 7948 41bd bc3f c43d e916 853d a4c6 d0bc
00000050: 0742 dfbc 17cc a63c 1ea8 30bc 99d0 b83c
00000060: 1455 5f3d ca53 e23d e299 073e 8051 173e
00000070: 3dcc e53d 1476 2d3e f442 6b3d b55e f53d
00000080: d9e5 223c 4052 edbc 8749 773d 6732 7e3d
00000090: f16a bbbc bea9 cb3c fe4a ac3d 4d00 653c
000000a0: 316b 21bc 9418 6abd b316 bc3c bcb2 01bb
000000b0: 34e4 67bd 00e3 0abd 9dac 7abd 5541 683d
000000c0: 39a8 a9bd 02c5 0d3d 0ca7 e1bd 72d3 ecbb
000000d0: 5907 9ebd 9c14 9ebd dcae 103d 9c75 5cbd
000000e0: a358 84bd 7304 203d 5275 113d b8f6 013d
000000f0: 2607 d43c 19ea 9bbd 516e a4bb a49d 05bd
00000100: 4596 c6ba 9339 cdbd 1646 aebd e7b3 32bd
00000110: 081f 87bb 807b c8bd 7845 6b3c 07fd 833c
00000120: ad30 05bd ccc1 d4bc 86d0 a5bd 07e1 a3bd
00000130: f41c d3bd fb24 aebd fc68 8bbd 5168 d6bd
00000140: 1d00 083d 8125 203d eb35 43bd ffa3 313c
00000150: 8d7f 8ebd 656a 7e3d 1365 913d a4d2 f0bc
00000160: 681c 83bd 8460 803c a2e3 8c3d a3c0 703d
00000170: e959 b3ba 94cb 8d3d 12ad 5b3d 646a c73c
00000180: 59a1 003b cf6c 283d d070 2c3d 4f62 083d
00000190: 5a0a 38bd a23e e4bc 2162 8e3d 9bc7 083d
000001a0: c31f a2bc c0d9 843c 266d c73c 3132 71bd
000001b0: d747 58bd f861 05bd a0cf 573d cafc b33b
000001c0: 2078 80bd dcf3 14bd 697d 60bd 7bab 7e3c
000001d0: 973a 243d 7a81 9ebb bc7b 1e3d 21af 1abb
000001e0: b90d 673d a1f7 54bd a9bb 9e3c da59 133d
000001f0: e24f 7a3c 6f70 5f3d 7157 cd3d 5ad4 ae3d
00000200: e2b3 c63d 05d7 363d 16ad b03c dadf 72bc
00000210: 0b62 d7bc daa2 593d fcd0 01bd cbb1 e83d
00000220: 21f8 9e3d e990 c93d be49 323b 7d83 da3d
00000230: c89a 823d a1e7 ce3c d38d 3c3d 3ca2 0e3d
00000240: 9aed 79bd 6c71 0fbd a86e 6ebd d374 0f3d
00000250: c801 b83b d71e 9c3b f07b 28bd 43ec b43c
00000260: b765 683d 3942 c83c b13f 9ebd cd47 88bd
00000270: f404 0bbd b9f8 213d 34f5 8cb9 b490 15bc
00000280: 8f0e 88bd dfd8 aabc c385 08bd dbe9 8bbc
00000290: 7097 a63d 9f94 10bd b04c 51bd 79e2 253d
000002a0: 5c26 48bc 34f7 a53d 9644 6bbd f8f4 a63d
000002b0: 39bd 1c3b fd8a 963d fa83 6dbd e0c0 a83d
000002c0: 3cf3 c83d 2192 62bd 6ec2 bf3d 3503 2dbb
000002d0: 6dc0 dd3d 53ad 1b3d 2074 69bd 54ac 093d
000002e0: fe81 d83d baa1 233d 331f 89bc c6c3 093c
000002f0: b937 5abd f0c2 5d3d aff9 ef3c d793 0abd
00000300: 8d17 97bd d532 483d 7413 89bd 2eb3 10bd
00000310: a26f 383b 6548 db3c 96f4 5e3b 436b 1bbc
00000320: b6a9 24bd a39e 81bd 6c9f 243d bdda 423d
00000330: 75ff 003d c400 9dbd 1d99 2dbd 0b08 36bd
00000340: c2a5 6f3c a8b9 a13b 5905 223d 4858 4fbd
00000350: 5530 ed3a 2d21 013d 541e 50bd c65e c5bc
00000360: ace5 7f3d 94b4 913d 7824 bcbd 2658 d63d
00000370: 252e 8dbd 402d 09bb ccbf 1238 9832 77bd
00000380: b3b3 63bc 4cbc 49bd f2d2 0a3d e35c 8fbd
00000390: 6653 503d c9de db3c 213a a53c 249c 083d
000003a0: b721 173d aa78 593d 6934 71bc bee6 83bb
000003b0: bc28 8abd 4620 f2bc 71b0 633b cd4c 5cbb
000003c0: cc95 44bd c923 b83c d624 97bb 6fa9 6abd
000003d0: a203 4e3c 204e 4bbc 67b3 2f3d 94b5 743d
000003e0: 43e9 a9bd 81f4 893c 2c7c 72bc 4342 75bd
000003f0: e6c1 75bd 7829 14bc de03 5a3d 2454 473d
-0.07037825 0.0027983398 0.011731949 0.05784082 -0.009135771 -0.016735021 -0.009349401 0.027873356
-0.032848008 0.012637957 0.00993019 -0.021788435 -0.062271778 -0.014648407 -0.016187608 0.07111074
-0.047188256 0.09582469 0.064985104 -0.025485344 -0.027253164 0.02036099 -0.01078227 0.022560405
0.054524496 0.11051138 0.13242295 0.14777184 0.11220596 0.16939574 0.0574369 0.119809546
0.009942495 -0.028969884 0.060372856 0.062059786 -0.022878142 0.024861213 0.08412741 0.0139771225
-0.009852217 -0.057152346 0.022960043 -0.0019790372 -0.056614116 -0.03390789 -0.061199773 0.05670293
-0.08284039 0.03461171 -0.1101819 -0.0072273547 -0.07716245 -0.07718775 0.03532301 -0.0538231
-0.064622186 0.039066743 0.035512276 0.03172943 0.025882315 -0.0761301 -0.0050180336 -0.03262104
-0.0015150985 -0.10020747 -0.085094616 -0.0436286 -0.0041235723 -0.09789181 0.014359824 0.016111864
-0.032517124 -0.025971316 -0.08096413 -0.08001905 -0.10308257 -0.08503147 -0.068071336 -0.104691155
0.033203233 0.039098267 -0.047658842 0.010842322 -0.06957922 0.062113184 0.070993565 -0.029397316
-0.064019024 0.015671022 0.06879355 0.058777463 -0.0013683412 0.06923595 0.05363185 0.024342723
0.001962742 0.041119393 0.042099774 0.03329688 -0.044931747 -0.027861897 0.0695231 0.033393484
-0.019790536 0.016217113 0.024344038 -0.058885757 -0.052802887 -0.032564133 0.05268824 0.0054927813
-0.06272912 -0.036365375 -0.0548071 0.015543814 0.040094938 -0.004837212 0.03869222 -0.002360292
0.05640957 -0.05199397 0.019376593 0.03597436 0.015277835 0.054550584 0.10026444 0.085365966
0.09702279 0.044638652 0.021566909 -0.014823878 -0.026291868 0.053133823 -0.031693444 0.11362036
0.077621706 0.098420925 0.0027204598 0.10669611 0.063771784 0.025256934 0.04603369 0.034822688
-0.06101761 -0.035020277 -0.058211 0.03502352 0.0056154467 0.0047644186 -0.04113382 0.022085315
0.056737628 0.02444564 -0.07726992 -0.0665432 -0.03394027 0.03954384 -0.0002688557 -0.009128738
-0.06643402 -0.020855365 -0.03333069 -0.017079284 0.08134353 -0.035297986 -0.051098526 0.040499184
-0.012216177 0.08103791 -0.057438456 0.08152193 0.0023916496 0.07350729 -0.05798719 0.08239913
0.09812018 -0.05531514 0.093632564 -0.0026399617 0.10827718 0.03800709 -0.05699551 0.03361161
0.10571669 0.039949156 -0.01673851 0.008408492 -0.053275798 0.054140985 0.029293863 -0.033832397
-0.07377539 0.048876602 -0.066931635 -0.03532713 0.002814271 0.026767919 0.0034020296 -0.009486022
-0.04020091 -0.06329086 0.0401911 0.047571886 0.031493623 -0.07666162 -0.04238235 -0.044441264
0.014626922 0.004935462 0.03955588 -0.0506213 0.0018096069 0.03152578 -0.050810173 -0.024093043
0.06247489 0.07114521 -0.09186643 0.10466032 -0.06893567 -0.0020931512 3.4987737e-05 -0.060350984
-0.013897824 -0.04925184 0.03389258 -0.070001386 0.050860785 0.02683963 0.02016932 0.033352032
0.036897387 0.05309359 -0.014721968 -0.0040253093 -0.06746051 -0.029556405 0.0034742618 -0.0033615113
-0.04799442 0.022478001 -0.0046125455 -0.05729049 0.012574108 -0.012408763 0.0428957 0.05974348
-0.08296444 0.016840221 -0.014800113 -0.059877645 -0.05999937 -0.00904309 0.053226344 0.048664227

conv2.bias f4 [16]
00000000: b564 8ebd bd7f ddbc e64a d93d f178 65be
00000010: 837c a5bd eff2 40be 90e2 39be 47a8 0a3e
00000020: cfb4 80bd fa9d 263e b02f 513c bf3e 16bd
00000030: 7933 7abe 7933 753e 661b 113e 6a79 c9bc
-0.06952802 -0.02703845 0.10609989 -0.22409417 -0.08080389 -0.18842672 -0.18152833 0.13540755
-0.062844865 0.16271201 0.012767717 -0.036680933 -0.24433698 0.23945417 0.14170608 -0.024594028

fc1.weight f4 [120, 400]
00000000: bbd2 6c3c fe29 3c3d 6bad 143c 7e58 86ba
00000010: f1da 09bd db78 2f3d 626d f6bc bcd9 eb3c
00000020: fd03 81bc bcfa b43a 8ed8 ff3c 3d0a 303d
00000030: 3a75 6e3d bdee 74bb 260f 283d e3a4 6ebc
00000040: 446f b33c 0b2c b9bb 37fa 203b 140b ccbc
00000050: d8c5 f4bc d29b 6a3d c17d 803c 8b97 203d
00000060: 6f4d 063d 38c4 c1bb d40a 393c e1e8 0c3d
00000070: 6c8a 653c 1f33 053c e303 0cbd 228a f8bc
00000080: 6141 3abd 77a9 8b3c c88b cd3c 6146 1cbd
00000090: afd0 cd3b 9fb1 6fbc 4a1a d33c 37de 09bc
000000a0: d8fc 00bd 13d9 11bd 1a66 a03c 3ada 33bd
000000b0: 7958 3eb9 2303 c33c 1017 593c 1129 4b3d
000000c0: 46da 043d c9f5 0e3c 90fe d3bb 28e2 c5bc
000000d0: 4bda ca39 0461 a93c 6537 edbb 6ee4 1fbc
000000e0: ec1c 06bc 49ae 08bc 8334 623a 68b8 7fbc
000000f0: f9e7 883b accb 97bc 1dc6 23bd dd52 02bd
00000100: 3134 8bbb a4df 57bc ca04 2dbd 001f 3c3c
00000110: dd12 11bd b1e7 563d 55a8 d33c 7b22 b03c
00000120: 7440 283d b017 f73c e657 36bc 3e34 ebbc
00000130: ed6b 2bbd 7f08 0a3b 0963 2e3b 76e7 143b
00000140: f9b5 703d 3224 8ebc 5c2d 8a3b 535f 973c
00000150: aa52 16bd 290c c4bc a900 4a3d 5905 183d
00000160: c8e2 bc3c b013 733d 73dd 043d 32e5 dd3c
00000170: bfd7 22bc 0cd7 163d 2f80 8fbc 5eeb 283d
00000180: b157 a2bc 6ebb 703d a7ed 473d 4c2b bd3c
00000190: 83a0 2dbc b78a 383d dc28 6e3c 6334 30bc
000001a0: 30c2 ebbc 3e3e aebb 1d90 aabc 72a4 f23c
000001b0: 3498 3ebd f09a e33c 1599 efbc 8c47 8d3c
000001c0: 1445 b13c 9edb 193d eac2 633c a34d ea3c
000001d0: a75e 383d 4b58 25bd cffd c6bc 37ff 653d
000001e0: 922b a73c b5e0 173d d010 4cbd 7cd3 9cba
000001f0: 939e 5d3d 69a3 743d eb1a 913b dd4a f8bc
00000200: 5db8 2cbd 640e 09bd 68d0 583d 927f 12bd
00000210: 4157 47bd db82 57bd fe15 bb3c 663b 4c3d
00000220: e67b 2bbd a874 3cbd 5841 f6bc 7cc4 31bd
00000230: 86a6 ccba 89dd 783c e64f 383c 656a 373b
00000240: 4767 f93c 7ee8 f53b b51b c83c 4634 563b
00000250: 90c4 98bc 3e29 3b3d 790b 1ebc 67f5 24bd
00000260: c3ae 683c d0b2 dfbc d860 a4bc f421 6d3c
00000270: b167 07bd 0a60 37bd 4e3d 383c a012 dc3c
00000280: a7e8 623c 9d6d 5f3c b214 d23c e094 2ebc
00000290: 0442 e1bc d2bd ee3c a69c 27bd 4fa1 a8bc
000002a0: 9f11 20bb 35ef 0a3d 4f7a 97bc 28af d53c
000002b0: 716f 50bc f5d8 c83c 997e 5b3d 33c0 08bd
000002c0: e99b 92bc 1f6b 38bb 53e0 cabc 1652 2fbc
000002d0: 337d 473d 13c6 3a3c fd5a 3bbd 74d5 d5ba
000002e0: 030d 5ebc ff2c 4f3d 852f 5b3d e8ab 153d
000002f0: 841d 143d 0aff 223c d312 8a3c 2ec8 a33c
00000300: 5be9 f53b 33b1 3cbd 35d2 9f3b 1f38 0abc
00000310: 6023 f1bc ed8a 0e3c ebcc 23bd 843d 993b
00000320: 2c1b 37bb e6a8 163d 8280 e13c 876a 13bd
00000330: 111f fbbc f083 01ba 7410 6abd 1fef 7539
00000340: 9c20 993c c1c2 c33c 0b42 62ba b73f dbbb
00000350: 9559 1b3d b304 833c 0b55 643b a913 c73c
00000360: 850c 943c 1810 6f3c 8621 d2ba bead 3bbb
00000370: 8255 223d 18eb e93c d492 2ebd 31c1 ecbb
00000380: d840 c4bc 1410 a6ba b83e 2a3b 5d5a 45bc
00000390: bf45 84bc 619c 1ebd 6b40 5e3d c0ac 883c
000003a0: 7c2d 263d 2245 ba3c eaa0 e63c 1590 01bc
000003b0: 1c71 f8bc c7cd abbc 2e69 343d 3cdf adbc
000003c0: 21dc 8d39 a31c 7d3c 028d 223d a61b 6ebc
000003d0: 852e b2ba 32ff a4bc d6ad c63c 9def 923c
000003e0: 900c 213d 30fe 4f3d 6d11 99bb 0b1a 7ebd
000003f0: 9c4b 483c a7c0 2bbd 5f4f 37bc 26e8 f43c
0.014454539 0.045938484 0.009074549 -0.0010249761 -0.033656064 0.042839866 -0.030081455 0.028790347
-0.015748972 0.0013807635 0.031231191 0.042978514 0.058217265 -0.0037373744 0.04103007 -0.014565679
0.021903642 -0.0056510023 0.0024563202 -0.024907626 -0.029879496 0.057277508 0.015684964 0.039207023
0.03278869 -0.0059132837 0.0112940855 0.034401778 0.014010053 0.008129864 -0.034183394 -0.030339304
-0.045472506 0.01704858 0.025091067 -0.038153056 0.0062809805 -0.0146297505 0.025769372 -0.008414797
-0.03149113 -0.03560741 0.019579936 -0.04390929 -0.0001815277 0.023805207 0.013250127 0.04959971
0.032434724 0.008725592 -0.006469555 -0.024155691 0.00038691083 0.020676143 -0.0072392696 -0.009759052
-0.008185606 -0.008342334 0.00086290407 -0.015607931 0.004178044 -0.018529736 -0.039983857 -0.031817306
-0.004248165 -0.013175879 -0.042240895 0.011482 -0.03541838 0.052467052 0.025837103 0.021500817
0.041077092 0.030162662 -0.011129355 -0.028711434 -0.041850973 0.0021062193 0.0026609323 0.002272097
0.058767293 -0.017351244 0.004216833 0.018478071 -0.03669993 -0.02393158 0.049317036 0.037114475
0.023057356 0.059344947 0.032437753 0.027086828 -0.009939133 0.03682618 -0.017517177 0.04124009
-0.019817205 0.058772497 0.048810627 0.023091935 -0.010597351 0.045054164 0.014536109 -0.0107546775
-0.02877912 -0.0053174784 -0.020820672 0.02961943 -0.04653187 0.02778384 -0.0292478 0.01724603
0.021639384 0.03756296 0.013901452 0.028601473 0.045012143 -0.040367406 -0.024290947 0.056151595
0.020406518 0.03707953 -0.04982072 -0.0011964883 0.054106306 0.059726153 0.0044282577 -0.030309135
-0.04216801 -0.03346099 0.052933127 -0.03576619 -0.048667196 -0.052615028 0.022837635 0.049861334
-0.041866206 -0.04600969 -0.030060455 -0.043400273 -0.0015613593 0.015189537 0.011249518 0.0027987
0.030444754 0.007504522 0.024427274 0.0032684966 -0.018648416 0.04569363 -0.00964629 -0.040273096
0.014201823 -0.027306944 -0.02006571 0.014473427 -0.033057872 -0.044769324 0.011245085 0.02686435
0.013849414 0.013636974 0.025644634 -0.010655612 -0.027497299 0.029143248 -0.040920876 -0.02058473
-0.0024424565 0.03391953 -0.018490938 0.026084498 -0.012721882 0.024517516 0.05358753 -0.03338642
-0.01789661 -0.002814002 -0.02476517 -0.010700723 0.048703384 0.011399764 -0.04574107 -0.0016314224
-0.013552907 0.05058002 0.053512115 0.036540896 0.03616096 0.009948501 0.01685468 0.019992914
0.007504625 -0.046067428 0.0048773536 -0.008436232 -0.029435813 0.008700115 -0.039990347 0.0046765227
-0.002793978 0.036782168 0.027527098 -0.035990264 -0.030654462 -0.00049406197 -0.057144597 0.000234541
0.018692307 0.023896577 -0.0008631057 -0.006690945 0.03792723 0.015993452 0.0034840729 0.024301367
0.018072376 0.014591239 -0.0016031719 -0.0028637494 0.039632328 0.028554484 -0.042620495 -0.0072251786
-0.023956701 -0.0012669587 0.0025977325 -0.01204547 -0.016146539 -0.038723353 0.054260653 0.016683936
0.04057072 0.022738043 0.028152902 -0.007907887 -0.030327372 -0.020972146 0.04404562 -0.02122461
0.00027057625 0.015448722 0.039685257 -0.014532959 -0.0013594186 -0.020141218 0.024252813 0.017936522
0.03931862 0.05077952 -0.004671267 -0.062036555 0.012225058 -0.041931774 -0.011188357 0.029895853

fc1.bias f4 [120]
00000000: f96c ba3c 920e 09bb b3e4 d0bc d2af 4b3c
00000010: e67a 8d3c b055 483c 8430 313c 50f7 5c3d
00000020: b154 843c 043b 3f3d 47c9 f03c 2361 a23b
00000030: 95ee 8b3d 6b2e 32bd 69ef 7f3d 2088 84bc
00000040: c6a2 433c 8837 bebc 1686 723c b32a 8e3d
00000050: fdb7 413d 48ba b03b a647 aebc 114b 72bd
00000060: 45cc 97bd b364 2b3d 55d0 80bc 9fbf adbc
00000070: c8c5 ae3c 954c 0c3c 3021 5dbd 22b4 93bc
00000080: 1893 ffbb 4b43 a63d 2d8b 1f3d ebbc 263d
00000090: 84f2 9bbc 2806 85bd 0fda 6ebc 3a4e 12bd
000000a0: 757e c03a e0cd 803d cd48 24bd 2538 963d
000000b0: 9713 45bd 103e 133d 914a 653c e52f 213d
000000c0: 6e44 7bbc aac8 7bbc e388 093c 6891 31bc
000000d0: f8e9 2fbd ee43 cf3c 0ec4 7d3c 0c4b eabc
000000e0: 8e29 3dbd 4134 81bc b123 8c3d 0177 87bc
000000f0: 441d b53c 01a7 be3d 7f3f cabc fe48 513c
00000100: 5efb e2bc 7ba4 3ebd 3c67 f33c e983 1c3d
00000110: 07b4 843d b2e2 d9bc 3b99 9abc bce7 26bd
00000120: 28bb 33bd 0fe1 32bc 3197 273d 2d6a 6ebd
00000130: d196 2f3d 61c8 183c bf7a 163d 02d5 103d
00000140: 6aee 05bc 6204 77bd 009e 523d 55fa 67bd
00000150: 3bdc f1ba 7f07 ef3c 635e e5bc a046 2bbd
00000160: 1a3d 41bc db7a a0bd d461 a33b adbe 02bc
00000170: 9b99 d1bc 72ce 02bd cb2e fe3c 6d79 bd3a
00000180: e3f3 a53c 9f3b 853c 8656 dcbc 18a1 b33c
00000190: 851e 343d 69dc 3d3d 1d2d 793c 32ba e2bc
000001a0: 1676 96bd 1c99 1dbd 8852 093c d5f9 17bc
000001b0: cd74 8bbc 63b5 843b d67a 603d dc44 ce3c
000001c0: c1e1 ba3d 4927 2f3d 27a0 8b3d 1e6f 37bc
000001d0: 70d1 1f3b 35fb 9f3d 98fd e43c c190 9dbd
0.02275704 -0.0020913226 -0.025499677 0.012432056 0.017270517 0.012227461 0.01081479 0.053946793
0.016153665 0.04668714 0.029392852 0.0049554273 0.06832615 -0.0435013 0.06248418 -0.01617819
0.011940664 -0.023219839 0.014802476 0.06941738 0.047294606 0.0053933 -0.021274399 -0.05915362
-0.07412008 0.04184408 -0.01572434 -0.021209536 0.021334544 0.00856318 -0.05398673 -0.01803023
-0.0077995174 0.08118304 0.038951088 0.04070751 -0.019036539 -0.06495315 -0.014578356 -0.035719134
0.0014686125 0.062892675 -0.04010849 0.073349275 -0.048114385 0.03594786 0.013994829 0.039352316
-0.015336139 -0.015367666 0.008394453 -0.01083789 -0.04294774 0.025300946 0.015488638 -0.028600238
-0.046182208 -0.015771987 0.06842745 -0.016536238 0.022108681 0.09309197 -0.02468848 0.01277375
-0.027707752 -0.04654358 0.029712312 0.038211737 0.0647965 -0.026597355 -0.018871894 -0.040748343
-0.043879658 -0.010917916 0.04091567 -0.058206726 0.04286844 0.009325118 0.036738154 0.03535939
-0.008174518 -0.060306914 0.05142021 -0.05663522 -0.0018452475 0.02917838 -0.027999109 -0.0418154
-0.011794353 -0.07835933 0.0049860273 -0.007980031 -0.02558594 -0.031935163 0.031028172 0.0014455743
0.020257896 0.016263781 -0.026896726 0.021927401 0.04397442 0.046352778 0.01520851 -0.027676675
-0.07346742 -0.038476095 0.008381493 -0.009275873 -0.017023468 0.0040499433 0.054804645 0.02517932
0.091250904 0.042762075 0.06817656 -0.011195926 0.002438631 0.07811586 0.027952954 -0.07693625

fc2.weight f4 [84, 120]
00000000: f0ae 96bd e188 6c3d f1c0 403d 46a9 2b3d
00000010: 685d beba a3ef 4fbc 9590 7ebd 3100 103d
00000020: d495 bc3b 5dec f2bc 6221 ddba 19f4 553b
00000030: 1a3c c2bc 2d21 3b3d 7edf 8a3d f003 2dbd
00000040: 5841 733c 59fc 83bd fba3 97bd 1362 4c3c
00000050: 6263 903d b27a 6a3c f85d 3f3d 37fa 8a3d
00000060: 67dc 8ebc 258c aa3c a666 853c 39c3 a63d
00000070: 9e14 a4bd 1fc5 fcbc 03df 2ebd d2dd a53d
00000080: 1b93 c4bb f1d6 f83c 5a63 7b3d 2e6f 0d3d
00000090: cc19 b63d 23f1 7c3d 4f85 cfbd 5813 093d
000000a0: 5e6b 7ebd 7024 a23d 805d 543c 2e51 8b3d
000000b0: 200a c2bd 5158 043d bd4f b0bd e16b 7f3d
000000c0: 4016 d0bd 50d8 ea3a c60b 0fbd 272b 8dbc
000000d0: e4c1 aa3d ff57 823d ad52 063c 7b73 973c
000000e0: 2006 8f3d 8155 a0bc 855f 4dbd ec74 883d
000000f0: 5097 d9bc 5e2f b73c d340 903d cb8f 993d
00000100: 615c 97bd 76dc e53c b87c 05bd b8d1 b1bc
00000110: 2586 54bb 175c 823d c4d9 62bd 1f4c 273d
00000120: 4bec 94bd 29e0 7e3d 3f0c 1bbd d842 87bd
00000130: 1213 9c3d 0e20 173c 86ed 273d c0a5 8d3d
00000140: ee96 9fbd 7853 fd3c 3c4d 713d cc7a 8d3d
00000150: e320 85bd a493 bcbb 4198 cfbd a2d6 b9bd
00000160: cf6f 443c b026 eabc ca66 c1bb 5ff8 79bd
00000170: 6907 92bd 7bd0 0e3d 1d30 023b 0346 93bd
00000180: 9ed3 2a3d 1e42 a53d 4d06 b23c 9b0a abbb
00000190: 7d34 94bd 2922 1e3d 75d5 b8bd 079e 563d
000001a0: 4412 8bbd 075e a6bc 41d3 46bb c8e4 97bd
000001b0: ed0f 0bbd 92e7 96bd 43e3 7b3d 9320 103d
000001c0: 233a dbbc 9b0e 153d 55ab a3bc a178 97bd
000001d0: 6408 acbd 350f ac3c 3729 843d 956c 693c
000001e0: 5d9b c9bc 8a79 873b f60e 53bd bf70 fe3a
000001f0: 59d9 9a3c 2418 713d c49c 21bc 3c9f 9c3b
00000200: 2345 8fbd 80a5 f13c 1092 8e3c 51e2 4cbd
00000210: 99f4 a33d 9431 713c 757a d5bc b049 dcbb
00000220: efe5 093d 49dd 7a3b b348 813d cecc 2a3d
00000230: 1a71 943d af75 9ebd 1eb8 573d 9eb0 30bd
00000240: c914 a9bd 3ceb 70bb 748a 9b3d e6e1 93bc
00000250: d3c7 f5bc f5e5 1abd d342 8c3b de67 c7bb
00000260: 2faf f4bc 40d3 b63c 8f20 b83c 7537 9a3d
00000270: 37a7 1eba 26b7 8c3d 2ee2 88bd d301 bcbd
00000280: d57b cb3c c05a 0e3d 9dd7 1fbd 6fc2 1e3d
00000290: 037c 73bb 3301 d438 5ca5 e73d 93b3 143b
000002a0: 4f5b 313d 7bb7 f7bb 9046 b6bd 249e c8bc
000002b0: 1a17 063d 004d 813d 2efe 8b3d 52b0 b53d
000002c0: bf03 a13d 4935 b83d 9a1e 83bd ec5f 733d
000002d0: bd73 9bbd 0340 fb3c 02d4 b23c e90e 17bd
000002e0: fd7c 603d 94e8 9bbd 068d bc3d 2e3b 37bc
000002f0: a764 89bd 3e8a aebc 9551 c33c aa1a 60bd
00000300: 7873 623d 4bee 70ba 9896 9abc 19f8 a8bd
00000310: 9fe2 94bd 7731 653d 8a03 4abb 6042 06bc
00000320: 6961 9abd a63e 263d a6e0 df3d e6b9 77bd
00000330: 6dcb d139 2ae1 b93d cbba 79bd 6f19 43bd
00000340: ae5c 8d3d 9bfb 8ebd 95bc a23c 5b6d a7bd
00000350: 6821 893d b9ef 43bd ca67 a93d 4474 e5ba
00000360: eee0 2c3d 7d30 9bbd 3638 9fbd d135 a03d
00000370: 5ff1 073d 5eda 8c3d 5881 903d 9d22 ce3d
00000380: 8d3e 89bd d683 1a3d 8560 66bd 2f9f 40bd
00000390: 70b1 8d3d 1cf3 84bd 99d9 9abc 9674 9bbd
000003a0: fd1d db3c 33c4 913d 3d83 c3bd e839 fb3c
000003b0: 45b3 fe3b bcf6 87bd 06b1 95bd 76bc d6bd
000003c0: cee2 273d e852 41bc af19 f23c 726a 0dbd
000003d0: 6761 963d 4fc7 81bd e471 253d 9fd7 c7bc
000003e0: b3ac 623c 797e 90bd f534 983d fc67 99ba
000003f0: a4e4 8fbc 7192 8cbd 7135 6dbd 4f1e b4bd
-0.073575854 0.057747725 0.047059003 0.04190948 -0.0014523687 -0.012691411 -0.062149603 0.035156433
0.0057551656 -0.029653722 -0.0016870911 0.0032646714 -0.0237103 0.045685936 0.06780909 -0.042240083
0.014847122 -0.06444616 -0.07404324 0.012474555 0.07050206 0.014311479 0.046720475 0.06786006
-0.01743908 0.02081878 0.016284298 0.081427045 -0.08011745 -0.030855713 -0.04269315 0.080989495
-0.0059989817 0.03037593 0.061374046 0.034529857 0.08891639 0.061753403 -0.101328485 0.033465713
-0.062114112 0.07917106 0.012961745 0.06802593 -0.094745874 0.032310788 -0.08608959 0.06235874
-0.10160494 0.0017917249 -0.034923337 -0.01723249 0.08337763 0.0636444 0.008198422 0.018487683
0.0698359 -0.019572021 -0.050139923 0.06662926 -0.02656141 0.022361454 0.07043614 0.074981295
-0.07390667 0.028059226 -0.032589644 -0.021706447 -0.003242859 0.06365221 -0.05538346 0.04084408
-0.07271632 0.062225495 -0.037853476 -0.06604546 0.07620825 0.009223951 0.040998004 0.0691638
-0.077924594 0.03092359 0.058911547 0.06908187 -0.06500413 -0.005754905 -0.10136462 -0.09074141
0.011989548 -0.0285829 -0.005902146 -0.06102788 -0.071303196 0.03486679 0.0019865104 -0.07191088
0.04170572 0.080692515 0.02173152 -0.00521977 -0.07236574 0.038606796 -0.09025089 0.0523968
-0.06790593 -0.020308508 -0.003033832 -0.074166834 -0.033950735 -0.07368387 0.06149603 0.035187315
-0.02676112 0.036390882 -0.019979158 -0.07396055 -0.08400038 0.021003345 0.064531736 0.014247079
-0.024610216 0.0041343616 -0.05152794 0.0019412263 0.018902468 0.058860913 -0.009864036 0.0047797244
-0.06995609 0.029497862 0.017403632 -0.05002052 0.08005638 0.014721293 -0.026059369 -0.0067226514
0.033666547 0.003827887 0.063126944 0.041699223 0.07248135 -0.0773729 0.052665822 -0.043137185
-0.082559176 -0.0036761304 0.07594767 -0.018052053 -0.03000251 -0.03781696 0.004280427 -0.00608538
-0.02986869 0.022317529 0.022476463 0.07530109 -0.00060521386 0.0687087 -0.06683765 -0.091800354
0.024839321 0.034754515 -0.039023984 0.038759645 -0.0037152774 0.00010109171 0.11310837 0.0022690042
0.04329997 -0.0075597144 -0.089001775 -0.02448947 0.032736875 0.06313515 0.0683559 0.08871521
0.07862043 0.08994538 -0.06402321 0.05941765 -0.07590435 0.030670172 0.021829609 -0.036879454
0.054806698 -0.0761272 0.092065856 -0.011183543 -0.06708651 -0.021306153 0.023842612 -0.05471293
0.0552859 -0.0009190782 -0.018870637 -0.08250446 -0.07269787 0.055955376 -0.0030824863 -0.008194536
-0.07538111 0.04058709 0.1093152 -0.06048002 0.0004001515 0.0907615 -0.060969155 -0.047631677
0.06902443 -0.06981584 0.019865314 -0.08175155 0.06695825 -0.04783604 0.08271749 -0.0017505963
0.042206697 -0.07577608 -0.07774393 0.07822765 0.033189174 0.06877588 0.0705592 0.10065196
-0.06701384 0.037723385 -0.056244392 -0.04702681 0.06918609 -0.06491682 -0.018902587 -0.075905964
0.026747698 0.071175 -0.09546516 0.03066726 0.0077728354 -0.06638858 -0.07309155 -0.10485165
0.040987782 -0.011799552 0.029553263 -0.034525342 0.07342797 -0.06336843 0.040391818 -0.024394808
0.01383512 -0.07055373 0.07431976 -0.0011703963 -0.017565079 -0.06863869 -0.057912294 -0.087948434

fc2.bias f4 [84]
00000000: b444 383d 3104 193d 15d8 0abd 1f51 24bd
00000010: 8771 9e3d a0f3 82bc 2410 1bbe e7aa 823c
00000020: 955a 08bd a366 513d 274d 09bd ea21 21bd
00000030: 6f98 44bd c4c1 aa3d 32c8 9ebd f0f0 99bd
00000040: ad1d 5ebd 8137 7a3d 74f9 94bd 208e 243e
00000050: 44fa 853c 37a7 bf3d 3328 e2bd 9b34 0e3d
00000060: f545 033e d5c2 c73d 5738 87bd 81bf 26be
00000070: 7509 ab3d 6ebe a13d fb12 133e bcd3 c63d
00000080: 5d24 79bd 8939 983d d79d 823d 3882 1fbd
00000090: 0a48 c2bd 0212 433d a1a8 ae3d 276f 543d
000000a0: f3d1 583c 8c96 9c3d 2eb7 96bd cebe 8f3d
000000b0: 4bff 943b 3ea1 a13c 18c5 103e 14b0 593d
000000c0: fa0c 85bd 51c0 ed3b c21b f93c ffae 773d
000000d0: 6216 013e 6964 5cba f52c d93d 1e0e 26bc
000000e0: c60c 72bd 8b45 35bd bba6 883d 0c10 e6bc
000000f0: 64f9 4dbd 2e6e 983d 8232 ba3d c20f 16bb
00000100: ee94 223c 608c 82bc b8a7 263e 17a3 efbd
00000110: dd82 9bbc a10a d73d b344 873d e6f5 97bb
00000120: 1feb ee3d 9a62 cd3d 1237 80bd 1d77 30bd
00000130: 5b2a 72bd e928 14bd 4ac9 183d f44a b73d
00000140: b128 4bbd b214 e83c 0c9a bdbd a13a 6d3d
0.044987395 0.037357513 -0.033897478 -0.040116426 0.07736497 -0.01598531 -0.15142876 0.015950633
-0.03328951 0.051123273 -0.033520844 -0.039338984 -0.047996935 0.08337739 -0.07753028 -0.07516658
-0.05422752 0.06108809 -0.07274142 0.16069841 0.016354688 0.093580656 -0.11042824 0.034718137
0.12819655 0.09753958 -0.06602543 -0.1628399 0.08351413 0.0789765 0.14362709 0.09708354
-0.060825694 0.07432849 0.06377762 -0.038942546 -0.094863966 0.047624595 0.08528257 0.051863816
0.01323365 0.07645902 -0.073591575 0.07018815 0.004547035 0.019730207 0.14137685 0.053146437
-0.06496616 0.007255592 0.030408744 0.060469624 0.12606195 -0.0008407296 0.10604278 -0.010135202
-0.059094213 -0.044255774 0.06672426 -0.028083824 -0.050286666 0.0744289 0.09091665 -0.0022897576
0.009923203 -0.015936077 0.16274917 -0.11701029 -0.018983299 0.10500074 0.066049 -0.0046374677
0.116659395 0.100285724 -0.06260504 -0.043082345 -0.059122425 -0.036171827 0.03730134 0.08949843
-0.049599353 0.02833018 -0.09257898 0.05791724

fc3.weight f4 [10, 84]
00000000: 83de 28bc ca99 c4bd bcac 62bd 8081 c4bd
00000010: 5b61 b9bd 854d 0c3c e65e ca3d 1e8a 24bd
00000020: 0714 d83c 3367 8b3d e103 f33d 9928 fe3c
00000030: af22 813d ea5a f7bc b619 a93d 09d0 cc3c
00000040: 71c3 a9bd 9012 383d 6f66 b9bc b2a4 533e
00000050: 1b8f 333e 9e23 cebd 5d74 933d 7b5a 353c
00000060: ab1a 4b3d 677d 90bd 7cea 043e 09a8 173d
00000070: e084 f8bc dbc6 4c3d cb2a b1bd dfb1 da3d
00000080: 5e10 0b3e 376b 39bc 56b5 583e 1561 1dbe
00000090: c76f 993d d543 8d3d f729 82bd a226 0bbd
000000a0: 7d44 d13d bccf 393d c23b 003d 4537 83bd
000000b0: 9550 803d 8e42 b5bd 8ad9 03be 5cbd 4b3d
000000c0: 0e58 ee3c 1d39 5ebd e262 5bb8 be47 323d
000000d0: 53ca 553d 8484 773d 5084 bfbd 130f 06bc
000000e0: 5f8c a73c 6254 c4bc dd5a ef3d 265d 373d
000000f0: e00e bc3d cdff b83d 3901 1f3e 5ab0 7bbc
00000100: b841 773e bd51 ecbc a299 573b ba3b ccbc
00000110: fe98 a0bd ef11 d33d 7063 12be 3e8e 77bd
00000120: 7eaf 4c3e 26da c2bd 5faa 3bbd 410a a1bd
00000130: b0bf a2bd 1fa4 15be 8b4d 063e 1f88 573e
00000140: 7b4a cbbd 1a91 303d 55e1 173d dd30 9ebd
00000150: ced1 2d3d 96db 5dbd 7b13 e3bb 2348 9e3c
00000160: 1717 033e e225 293c 83e6 e03d 5360 07be
00000170: 4062 613d 09a3 353e ee82 e43d f120 143d
00000180: 16f8 833d ebed db3d cfb1 5ebc 5e5d d9bd
00000190: cf6d 10bb c912 d63c c161 743d 0b14 f5bd
000001a0: daed cabd 6e18 84bd 39af 1f3e 242e 88bd
000001b0: fceb e23d 6225 093d 1f4d c4bd 59fa 173e
000001c0: e956 37be d762 c73d 39bc d1bd 48e5 ddbd
000001d0: 0ae4 883d 410d 01be 38ad 0cbe bd22 fb3d
000001e0: f016 613e 4255 18bd 061e 1ebe 42ff 773e
000001f0: 1681 1abd 373a 10be 69e3 d3bd f97a c0bd
00000200: 7287 81bd a9f9 03bc 4e9a 68be d649 bcbd
00000210: 34c9 593a 4c3c b2bc c847 76be 85a9 dabc
00000220: 3b56 37bd 489e bfbd 7cb0 833d 1eb4 c2bc
00000230: d31a 99bc 7779 e73d 20a6 163d 26b8 d53d
00000240: 84a2 0d3e 6e94 3dbe 7e43 a83d 0d59 93bb
00000250: 38f8 82bd 4e0e c9bc 7363 bfbd 3d7d f33d
00000260: aa8b d13d c2b7 06be 8da3 e0bc 15ec a7bd
00000270: 8b54 ddbb e8bd 97be 8460 f13d fe24 a03d
00000280: 5b1a 363e 3961 7abe ad88 dbbd 1841 9bbd
00000290: 386f c03d 77a7 38bd 7021 db3d c23d f13d
000002a0: 4f7e 183e 0793 2bbd 6a8e 803c 222e a3bd
000002b0: bc4b 1a3d ec39 cdbd 1dcf d1bd ec66 693e
000002c0: a10d 1a3d eed4 e3bd 054e 6f3d 42af 323d
000002d0: 43f4 47bd 94e6 033e 905c 2f3c 069e 343e
000002e0: ef92 0e3e 419f 91bd 8ab9 acbd 1117 b6bd
000002f0: a3e6 91bd 527a 953d 43f1 14be 9ab9 88bd
00000300: 1bdc d6bd 4ac8 a0bd 91ee 163d 8a17 d7bd
00000310: ddd3 53bd c0f1 80bd 8faf 033e 093e 87bc
00000320: 87eb 813b ea99 dfbb 68f1 c03d 50a0 f9bc
00000330: 647a c53d 6a8b 38bd b9c6 113e 390f 24bd
00000340: b381 a33d 7691 e23d 0fcc 853d 56c3 ecbd
00000350: 3a9b ccbd 2dc9 28be c231 293e e024 a53d
00000360: ae3d 803d ae72 ed3c b859 3fbd ff96 6c3d
00000370: 68bb a73d e9ea 0ebe d203 52bd 795c cabc
00000380: 313f ebbd 3beb 7e3d 9ee8 0cbe 7f77 51bd
00000390: 074c 0ebe 30c4 8bbd 52bc ad3d d8cd 803d
000003a0: bccb c83c 6775 6a3c 74a0 643e a00b 3b3d
000003b0: 8e6a 4dbb ca80 d63d 3a86 0e3e aba4 b0bd
000003c0: 3d05 b03d 828a ae3d 43f6 80bb 66c0 af3d
000003d0: 8558 1cbe 7925 c0bd c27f 13bc 934f 493e
000003e0: 059d 463b ee15 94bc 7fd5 a1bc 32e0 ff3c
000003f0: ecb0 9b3d 155c b83d d828 0ebd e395 b83d
-0.010306957 -0.095996454 -0.055340514 -0.09595013 -0.09051772 0.008563404 0.09881382 -0.04017078
0.026376737 0.06806793 0.11865974 0.031025218 0.063054435 -0.030194718 0.08256857 0.025001543
-0.082892306 0.044939578 -0.022631852 0.20668295 0.17535059 -0.10065387 0.07199929 0.0110689355
0.04958598 -0.070551686 0.12980074 0.037025485 -0.030336797 0.04999433 -0.0865074 0.106784575
0.13580462 -0.011317066 0.21162924 -0.15369065 0.07492023 0.068977036 -0.063556604 -0.03397239
0.10218141 0.045364127 0.03130699 -0.06407026 0.0626537 -0.08850585 -0.12875953 0.049741134
0.029094722 -0.054253686 -5.230576e-05 0.04352545 0.052194905 0.06042911 -0.093514085 -0.008182305
0.020452676 -0.023966018 0.11687253 0.044766568 0.09182525 0.09033165 0.1552781 -0.01536187
0.24146163 -0.02884757 0.0032897969 -0.024930824 -0.07841681 0.10306155 -0.14295745 -0.060438387
0.1998882 -0.09514265 -0.045816775 -0.07863284 -0.07946718 -0.14613388 0.13115518 0.2104802
-0.099263154 0.04310713 0.037080128 -0.07724164 0.042436413 -0.05416449 -0.0069298125 0.019321507
0.12801777 0.010323973 0.109814666 -0.13220339 0.05502534 0.17737974 0.11157785 0.036164228
0.06443803 0.107387386 -0.013592198 -0.106135115 -0.0022038107 0.026132004 0.059663538 -0.119667135
-0.09908648 -0.06449972 0.15594186 -0.066494256 0.11080167 0.033482917 -0.09585022 0.14841594
-0.17904247 0.09735649 -0.10240979 -0.108347476 0.0668412 -0.12602712 -0.13737953 0.12262485
0.21981406 -0.037190683 -0.1544114 0.24218467 -0.037720762 -0.14084707 -0.103461094 -0.09398455
-0.06324662 -0.008055129 -0.22715113 -0.091937706 0.00083078747 -0.021757267 -0.2405082 -0.026692161
-0.04475997 -0.09356362 0.06430146 -0.023767527 -0.018689549 0.113024645 0.036779523 0.10435514
0.13831526 -0.18513653 0.08215998 -0.0044966997 -0.06395 -0.024542954 -0.0934514 0.11889122
0.10231717 -0.13156036 -0.027421737 -0.08199326 -0.006754463 -0.29637074 0.11785987 0.07819556
0.17783491 -0.2445115 -0.10719428 -0.07580775 0.09396213 -0.045081582 0.10699737 0.117793575
0.14891933 -0.041888263 0.015692908 -0.079677835 0.037669882 -0.10020813 -0.10244582 0.22793168
0.037610654 -0.111245975 0.058424015 0.04362417 -0.04881693 0.12880927 0.010703221 0.17638406
0.13923238 -0.071104534 -0.08433826 -0.08891118 -0.071240686 0.072987214 -0.14545159 -0.06676026
-0.104912005 -0.07850702 0.03684861 -0.105025366 -0.05171572 -0.0629611 0.12859939 -0.016509073
0.0039648446 -0.006823768 0.094210446 -0.03047195 0.09642485 -0.04505483 0.14235963 -0.04005358
0.079837225 0.11062901 0.06533062 -0.11560695 -0.099905446 -0.16482992 0.16522887 0.08063674
0.062617645 0.028985348 -0.04671642 0.05776119 0.08190042 -0.13956799 -0.051273175 -0.024702298
-0.11486662 0.062236052 -0.13760611 -0.05113935 -0.1389619 -0.06824529 0.08483185 0.062892616
0.02451121 0.014310217 0.22326833 0.045665383 -0.003134403 0.10473783 0.13918391 -0.08625158
0.08594749 0.08522512 -0.0039356067 0.08581619 -0.15268143 -0.09382147 -0.009002628 0.19659261
0.0030305993 -0.018076863 -0.019755123 0.031234834 0.076021045 0.09001938 -0.03470692 0.090129636

fc3.bias f4 [10]
00000000: 8c93 02bd 5915 8dbe e486 423e db66 5c3c
00000010: 344c 443e 5b47 e9bd 8111 89bc 5aae 42be
00000020: 71d3 163e 1975 4cbe
-0.031878993 -0.2755535 0.18996769 0.013452257 0.19169694 -0.11390563 -0.01673198 -0.19011822
0.14729096 -0.19966544
