Demo/CIFAR_Classifier/model/LeNet_parameter.pt (torch_old, 249684 bytes, 10 tensors)

conv1.weight f4 [6, 3, 5, 5]
000000 cb f0 80 be 3c ca c6 3b 4e 20 04 bf e7 3a 95 be
       -0.2518371 0.0060665887 -0.51611793 -0.291465
000010 52 7c a2 3d 80 09 4e be eb 8f 0f bf 1d df 9a be
       0.079338685 -0.20120811 -0.56078976 -0.30248347
000020 a5 fd f9 3e 12 37 71 3e c1 93 66 be 99 5d 3d be
       0.48826328 0.23556164 -0.22517301 -0.18492736
000030 47 45 1d 3f fb 4a 06 3f 9c d7 4e be 40 88 e4 3d
       0.61433834 0.5245816 -0.20199436 0.111588
000040 cc 1a 93 3e 5e 56 e0 3e 08 02 13 be e1 8f 9b 3d
       0.28731382 0.43815893 -0.14356244 0.07595802
000050 00 53 12 3e 10 b6 9f 3e 3f 87 2d 3e e6 01 b4 bc
       0.14289474 0.3119359 0.16946124 -0.021973561
000060 04 ee 67 3e 87 7c 04 3f d0 15 0f 3f 8d cf 9f be
       0.2264939 0.51752514 0.5589266 -0.31213036
000070 b8 55 77 be c3 ac 10 3d 0e 1d 85 3e 69 0e d6 be
       -0.24153793 0.03532101 0.2599873 -0.4180787
000080 bd 39 8d be 76 42 e6 3e 08 87 c1 3d cf b7 6a be
       -0.27583113 0.4497258 0.09449583 -0.2292168
000090 f7 53 2d be 3f d2 07 3f 7a 2b c3 3e 70 f8 0b bf
       -0.16926561 0.53055185 0.38119107 -0.5467596
0000a0 1c ce 00 3e 77 19 09 3e d3 7e f8 3d f4 fd 1a bf
       0.12578624 0.1338862 0.12133565 -0.6054375
0000b0 20 6d 1b be ca d7 74 bd 38 4e ad bd 26 34 ec be
       -0.15178347 -0.059776105 -0.08462185 -0.46133536
0000c0 5f 2d 03 bf 15 fd 4d 3d 2f 3a cf 3d b3 ad 59 3e
       -0.51241106 0.050290186 0.101185195 0.21257667
0000d0 e0 42 d7 be 8e c6 b3 be 6c 0d 56 3e 40 bc ac 3c
       -0.4204321 -0.35112423 0.20903558 0.021085858
0000e0 13 c4 3c bf 96 86 7c be dc 54 0f 3f 0f 06 77 3e
       -0.73736686 -0.24660715 0.5598886 0.24123405
0000f0 4e c7 c0 be 13 27 3b be 4e 22 31 3f 40 b5 a3 3e
       -0.37652057 -0.18276624 0.6919297 0.3197422
000100 c3 e6 70 be f9 0d 52 3d c4 4e c9 3e 45 dd ab 3e
       -0.23525529 0.051282857 0.39317906 0.33567253
000110 25 76 74 be 5a 57 26 3d 52 8d f7 3d 21 27 8f 3e
       -0.23873194 0.04061065 0.120875016 0.2795954
000120 df be 98 bd 6b 48 88 bc 9d 79 bb 3e 9c 28 b7 3e
       -0.07458281 -0.016636094 0.3661622 0.3577317
000130 f1 6f a4 3d bb 50 3b be c0 b3 55 3d 85 dd d4 3e
       0.08029164 -0.18292515 0.052173376 0.41575256
000140 04 0c 17 3e fe 1b ae be 0f 0a 15 bf cf 1e e6 be
       0.14750677 -0.3400573 -0.58218473 -0.4494538
000150 6d 17 7b 3d b9 6b 6b bd bc a5 25 bf 63 ce 24 bf
       0.061301637 -0.05747578 -0.64706016 -0.6437742
000160 8e c8 17 bf d1 67 59 be 11 65 a8 3c 8c 6a cc be
       -0.592904 -0.21231009 0.020556005 -0.3992504
000170 82 43 d5 be 8f b0 af be 73 63 6f 3d cc 20 e7 3c
       -0.41653067 -0.3431439 0.05844445 0.028213881
000180 09 93 06 3e 6d 35 2c be 5f e6 d6 3d 42 7d 07 3e
       0.13142027 -0.16817255 0.104931585 0.13231376
000190 25 c1 2c be e7 9c f8 bd 66 42 b6 bd 65 e6 42 3d
       -0.16870554 -0.12139302 -0.08899383 0.047583003
0001a0 e6 5b 99 be 5d e5 9b bd 65 87 5f 3e ea 21 73 3e
       -0.29952925 -0.07612107 0.21828993 0.23743406
0001b0 39 12 7b 3e 5e 9e e5 3c 4f 96 b5 3d 1d c9 76 3c
       0.2451867 0.028029617 0.0886656 0.015062598
0001c0 14 23 9f 3e ba 8d a4 3d b2 cc e3 3d 06 1c 4f 3e
       0.3108145 0.08034845 0.11123027 0.20225534
0001d0 6f 24 1e 3e 62 97 3b 3e a5 0c 25 3e 7c dd 6a 3c
       0.15443586 0.18319467 0.16118105 0.014335033
0001e0 74 59 98 be 89 bd cd bd ac 96 e0 be cd 7c c9 bd
       -0.29755747 -0.100459166 -0.43864954 -0.09838257
0001f0 ee 19 af be 55 33 b0 be df 6e a6 3d 42 5f e0 3d
       -0.3419947 -0.34414163 0.08126616 0.10955669
000200 5a 66 3e 3e 6f 3a c0 be 42 7b 10 be f8 52 93 3e
       0.18593732 -0.3754458 -0.14109519 0.28774238
000210 d3 bf c5 3e 61 26 cc 3e 15 37 a0 3d 68 24 68 bd
       0.38622913 0.3987303 0.07823006 -0.056675345
000220 8a 18 ae 3e 45 d7 04 3f 77 8d af 3e 4e ec 18 3e
       0.34003097 0.51890975 0.34287617 0.14933893
000230 cb de 93 bc 50 ee 04 3f bf d9 eb 3e a8 57 b9 3e
       -0.018050572 0.51926136 0.46064565 0.3619969
000240 20 fa 45 3d 84 cc 60 be 5c d0 89 3e 08 ab 10 3e
       0.04833424 -0.21953017 0.26916778 0.14127743
000250 04 1e 19 3e e9 aa 4b be 16 7a 50 3d 35 31 4c 3c
       0.14952856 -0.19889416 0.05089768 0.012462904
000260 2a 5d d9 3b ac 55 80 3e 04 93 a6 3d 60 a4 ae 3e
       0.0066334205 0.25065362 0.0813351 0.34109783
000270 c3 a0 07 3f 56 ab 22 3f bf b3 68 3f 60 77 ad 3e
       0.5297968 0.6354269 0.9089927 0.33880138
000280 dd 39 bf 3e c0 ee 2f 3f 7f 7b 3e 3f 24 72 0a 3f
       0.37348834 0.6872368 0.7440719 0.54080415
000290 ab 23 a8 bc 16 dc eb be a4 51 81 be 51 af 47 bf
       -0.02052482 -0.4606635 -0.252576 -0.78001887
0002a0 84 f8 71 bf 2b 24 2c bf f7 4e 04 be 97 c2 0d be
       -0.9451983 -0.6724269 -0.12920748 -0.13843761
0002b0 46 f9 1d bf be 31 cf be 70 08 99 be 7c ab 8e be
       -0.61708486 -0.40467638 -0.2988925 -0.27865207
0002c0 38 21 08 be a2 bd 90 be 42 a6 d2 be 79 a9 dc 3c
       -0.13293922 -0.28269678 -0.4114247 0.02693628
0002d0 40 b9 cc be 0b 29 25 3e aa 79 ef 3c 4c 35 f4 3d
       -0.39985085 0.16128938 0.029232819 0.11924228
0002e0 20 5f 31 3d 4e 92 3a 3e a5 fc 32 3f c5 9a 39 3f
       0.04330361 0.18219873 0.69916755 0.72501785
0002f0 72 70 f7 3e ba 60 c2 3c 58 fd bc be 4c 54 a2 be
       0.48327976 0.023727763 -0.36912036 -0.31704938
000300 4b d0 3b bf 36 bd 56 bf 1f b8 e3 be 0c d9 c2 3c
       -0.73364705 -0.8388246 -0.4447641 0.023785137
000310 4c c4 7f bd a4 18 c1 be 37 2e 44 bd 5d 90 94 3e
       -0.062443063 -0.37714112 -0.047895636 0.2901639
000320 58 b4 74 3d 94 c4 57 be ee 3c df be 7a ad f1 be
       0.0597423 -0.21071082 -0.43601173 -0.47202665
000330 5f 92 6a bd 98 cf cb be ca 21 83 be 1a c2 84 be
       -0.057268497 -0.3980682 -0.25611717 -0.25929338
000340 f3 2c 9f 3c 35 8f c1 bd cb b8 b6 3e 91 24 1c 3f
       0.019430613 -0.09451143 0.3568786 0.60993296
000350 00 df d8 3e 16 8c 01 3f 4b 05 26 3e 5c 39 48 be
       0.42357635 0.5060438 0.16212957 -0.19553131
000360 49 3b c2 bd 33 bc 9d be fc 42 9d be dc 7d 88 bd
       -0.09483964 -0.30807647 -0.30715168 -0.06664631
000370 d4 c6 0c 3e 2d 1f a8 3e ba 96 85 3e 5e b4 d2 3e
       0.13747722 0.32836285 0.26091558 0.41153234
000380 c9 01 da 3e e4 74 9d 3e 34 e6 96 3e 01 32 c8 3e
       0.42579487 0.30753243 0.29472506 0.3910065
000390 f0 69 57 3d f7 4a 91 3d f1 9f e6 3e 51 2c 81 be
       0.052591264 0.070943765 0.450439 -0.25229123
0003a0 f1 71 b9 3d f8 42 e2 bd 81 93 b1 3c af f3 e6 3e
       0.09054936 -0.110479295 0.02167678 0.4510779
0003b0 3d 9f 30 bf a3 2a 69 3e b1 57 43 3e ed 40 ff 3d
       -0.6899298 0.22770171 0.1907642 0.124635555
0003c0 35 15 60 3e f9 70 2e bf d2 bc a6 3e 6f a2 a7 3e
       0.2188309 -0.6814113 0.32565933 0.32741114
0003d0 8b 5f 28 bd 71 4b 39 be 83 69 f3 be 52 eb 01 3e
       -0.041106742 -0.18095185 -0.47541437 0.12687424
0003e0 de ed dd 3d f9 5e ce bd 55 b5 5c bd dc 13 af be
       0.10836385 -0.10076708 -0.05388387 -0.3419484
0003f0 63 80 a2 be 70 aa b7 be 16 15 16 be 12 6a 95 3e
       -0.31738576 -0.3587222 -0.14656481 0.29182488

conv1.bias f4 [6]
000000 da a2 9a 3e 14 90 5d 3f 7d ad ff be 29 0b 55 bd
       0.3020237 0.8654797 -0.4993705 -0.052012596
000010 97 e3 01 be b0 d2 b4 3e
       -0.12684475 0.35316992

conv2.weight f4 [16, 6, 5, 5]
000000 66 3a a5 bd 2d 8e a5 3d 63 90 dd 3d cb 1b b6 3d
       -0.08067779 0.080837585 0.10818555 0.0889202
000010 45 84 5f 3e 35 47 9d be 14 ec 06 bb e3 bb ef 3d
       0.218278 -0.3071839 -0.002058749 0.117057584
000020 46 2f 5c 3e 3a 18 8f 3e ad b7 07 bf 7d 47 a1 be
       0.21502408 0.2794817 -0.5301464 -0.31499854
000030 64 37 97 bc 35 50 74 3e 33 f1 44 3e e6 03 a9 be
       -0.01845903 0.23858722 0.19232635 -0.33010787
000040 bb c8 db be ec c9 a4 be 47 a2 87 bd b0 2d 40 3e
       -0.42926583 -0.32185304 -0.06622749 0.18767428
000050 f1 ce 48 be d3 aa 78 be f4 20 95 bd ed 79 1a be
       -0.19610192 -0.24283914 -0.07281676 -0.15085573
000060 3d aa 30 3e 1d 20 c0 bc 56 b6 b0 3c a3 55 b1 3d
       0.17252441 -0.023452813 0.02157132 0.08658912
000070 2e d6 a1 bd aa 4b af bc a2 17 08 be 71 75 01 bd
       -0.0790218 -0.021398384 -0.13290265 -0.03160614
000080 1e 31 b2 bd e9 50 2d bd 86 29 4a 3c c3 8b 6b bd
       -0.087007746 -0.04231349 0.0123390015 -0.057506334
000090 29 d4 27 be 15 e4 38 bd cc da af 3c fc fe 38 3d
       -0.16389526 -0.04513939 0.021466635 0.045165047
0000a0 ba 12 f3 3d bc cc 4a bd 4e af 54 bd 63 0a 08 be
       0.11868806 -0.049511656 -0.051924996 -0.13285212
0000b0 a4 ce 09 3d 53 11 99 3e 62 2c 0b 3e 5f 21 4f be
       0.033644333 0.2989603 0.1359115 -0.20227574
0000c0 db 92 19 bd 63 4d 07 3e ac 03 bf bd b0 b6 0c bd
       -0.037493568 0.13213114 -0.09326872 -0.034353912
0000d0 41 ee a2 bc ba d8 5f 3c 83 11 f7 bc e6 fd 5c be
       -0.019888999 0.0136625115 -0.030159717 -0.2158123
0000e0 6c 11 1e 3d 11 6d bf bd fb 9e c0 bc 08 f8 63 bd
       0.038590834 -0.09346975 -0.023513308 -0.055656463
0000f0 54 bb 8c be a0 01 60 3d 71 56 b7 bd b7 36 b6 bc
       -0.2748667 0.05468905 -0.08952034 -0.022242887
000100 50 5b 4f bd 45 81 f6 be 7e 18 aa 3c 5d 39 f3 3d
       -0.05062419 -0.481455 0.020763632 0.118761756
000110 52 00 9b bc 27 33 01 be 6e e9 51 be aa 83 01 bd
       -0.018921051 -0.1261717 -0.20499203 -0.031619705
000120 1e 10 64 bb 99 f2 fe ba 75 6a 40 3d 61 0a 8e bd
       -0.0034799646 -0.0019450962 0.046976525 -0.06935573
000130 d7 e1 cd bc 02 ae 60 3d e4 19 7e bb 14 71 84 3c
       -0.025132103 0.054853447 -0.0038772756 0.016167201
000140 6c 9a 83 3d 91 47 76 be db 7d ed bd 14 ae 1a be
       0.06425938 -0.24050738 -0.11596271 -0.15105468
000150 84 f1 52 bc 7b 31 75 bc dc 1e 2e bc 75 ac 41 bd
       -0.012874965 -0.01496541 -0.010627475 -0.04728361
000160 51 b0 2e be 40 12 e4 bd b7 0a 85 be b0 14 85 bd
       -0.17059447 -0.111362934 -0.25984737 -0.064980865
000170 93 0f ec 3b e4 ed 9f bb d7 d6 a4 bd 37 8d ef 3d
       0.007204005 -0.0048806537 -0.0804879 0.116968565
000180 06 84 94 be a6 bc 3d be 36 e3 c5 bd 6f b8 23 3d
       -0.29006976 -0.18528995 -0.09662478 0.03997081
000190 46 4f 31 3e b9 60 d7 3d 5c 12 e2 3d 1b 48 4b bd
       0.17315397 0.10516495 0.11038658 -0.049629312
0001a0 21 0d 11 be e3 1d 57 3e 03 88 bf 3e 86 a8 f3 3d
       -0.14165165 0.21007495 0.37408456 0.11897378
0001b0 bf f7 b6 3d 88 08 02 be 28 64 15 3f 69 fc 7e 3e
       0.089339726 -0.12698567 0.5835595 0.24900974
0001c0 a3 46 a2 3e 73 ee 5c 3e 3d f1 6e bd b1 a3 9b 3e
       0.31694517 0.21575336 -0.05833553 0.30398324
0001d0 3d 7f ea 3e b4 b7 62 3e af 78 60 3c 81 f2 ae 3d
       0.458002 0.2214039 0.013700648 0.08542348
0001e0 f2 b3 ad 3d 48 89 87 3e cc 56 56 3e bf ec d3 3e
       0.084815875 0.26471925 0.20931548 0.4139156
0001f0 4b ae da 3d 49 5d 06 bd a1 a2 bc bb 0a 36 d4 bd
       0.10677775 -0.032803807 -0.0057566916 -0.1036187
000200 9d 0f a6 bc 21 21 8d bd f6 53 4b 3e 0b dc af 3d
       -0.020271117 -0.068910845 0.19856247 0.08586892
000210 95 8a cf bc 2f b1 e0 bd b8 d4 0d be c7 79 4b bd
       -0.025334636 -0.10971295 -0.13850677 -0.049676683
000220 4c 50 58 3e cb 7d 19 3d d7 7b 2d be 17 ce c7 bd
       0.21124381 0.03747348 -0.16941772 -0.097561054
000230 fb 1a a2 be c8 9f 3a 3d d6 82 78 3e 45 ca 71 3e
       -0.3166121 0.045562536 0.2426866 0.23612316
000240 92 dd 79 bd 61 99 a8 bd 76 7a dc bd 2a b5 3e 3b
       -0.06100232 -0.0823238 -0.10765545 0.0029099681
000250 e7 f5 b0 3e 13 85 7e 3e 28 0d 66 3c 3c cd 91 be
       0.3456261 0.24855451 0.014041223 -0.28476894
000260 fa 71 4f bd 84 6b 86 be 86 a5 84 be 37 4a 35 be
       -0.050645806 -0.26253903 -0.25907534 -0.17704092
000270 79 33 2d 3c 34 23 1f be 16 1e a2 be b0 dd be be
       0.010571354 -0.15540773 -0.3166358 -0.3727851
000280 85 78 d7 3d d1 c9 35 be 01 a8 12 bc 57 d4 ec bd
       0.10521034 -0.17752768 -0.008951188 -0.11563938
000290 11 e6 52 be b8 eb a0 3d d8 8d 71 3d 44 62 d6 3d
       -0.20595576 0.0785746 0.058973163 0.104679614
0002a0 f6 68 16 3e 0f 70 8b ba e5 a1 1a 3e 61 5b 87 3e
       0.14688477 -0.0010638254 0.1510082 0.26436904
0002b0 1e 38 95 3e 4f 80 e0 3e 9d a7 9e 3e 9b 3d 07 3e
       0.29144377 0.43847892 0.30987254 0.13207094
0002c0 83 a5 7f 3e 00 68 63 3e 6d 24 7c 3e 5a 39 c6 bc
       0.24965481 0.22207642 0.2462327 -0.02419727
0002d0 a6 a4 a1 bd 92 06 da 3d d5 c3 45 3e 3b a4 b2 3d
       -0.07892732 0.106457844 0.19312985 0.08722731
0002e0 98 11 81 3d b2 2c a5 be c6 6b dc bc 87 ed 4f 3e
       0.06302184 -0.32260662 -0.02690686 0.20305453
0002f0 af 9d 07 3e 2b 84 83 3c 7a 66 88 be 6a b5 0b be
       0.13243745 0.016054234 -0.26640683 -0.13643423
000300 59 e2 e6 bc 6e d6 f3 3d 2f 33 ad 3d d6 00 87 be
       -0.028184103 0.119061336 0.08457028 -0.26367825
000310 ca af 62 be 2c 39 46 be d4 9d 67 be f0 1f ef bd
       -0.2213737 -0.19357747 -0.226188 -0.116760135
000320 aa d8 8e 3d d5 fa d4 bd 9a 25 08 be 73 96 09 be
       0.06974919 -0.10399405 -0.13295594 -0.13436298
000330 32 e4 04 3e eb 5b d2 bc 34 ab 69 3d ac 09 9f bd
       0.12977675 -0.025678596 0.057048038 -0.07765517
000340 3d 42 11 be d3 a9 53 3e 6e b0 c3 3c 2b ad 04 bc
       -0.14185424 0.20670252 0.02388784 -0.008097927
000350 a1 46 a9 bd 10 a2 1c be 4f 4b 4e 3e 24 ef 04 be
       -0.082654245 -0.15296197 0.20145915 -0.1298185
000360 dc 24 64 be 09 83 51 be 3e 10 26 be f8 42 6c 3d
       -0.22279686 -0.20460142 -0.16217133 0.057681054
000370 78 5b 96 be e8 81 82 be 5b 9d 98 be 25 b9 a8 be
       -0.2936666 -0.25489736 -0.29807553 -0.32953754
000380 c7 0b b9 be 8c be d6 3e 8a b2 85 3e 27 3c 91 3e
       -0.36141798 0.4194225 0.26112777 0.28366205
000390 4f e8 9b 3e 11 45 5d 3e 9c fa 74 3d db 7d a7 3e
       0.30450675 0.21608378 0.059809312 0.32713208
0003a0 9c a3 36 3e c4 92 64 3e 3c cd 5c 3d 9a d0 95 be
       0.1783585 0.22321612 0.053906664 -0.29260713
0003b0 5c d0 eb 3c 5c de 2c 3e e8 a9 12 3e 61 d3 90 3d
       0.028785877 0.16881698 0.14322627 0.07071567
0003c0 39 6d 9b be af 5c 8b be f6 a9 43 bd fa a8 06 bd
       -0.30356768 -0.2721915 -0.04776951 -0.032875992
0003d0 69 78 e8 3d f9 12 5b be 21 9f d8 be fd 50 b0 be
       0.113510914 -0.21393956 -0.42308906 -0.3443679
0003e0 34 bb 71 be 89 57 8f be 47 e6 89 3e 67 16 87 bd
       -0.23606569 -0.27996472 0.269335 -0.0659607
0003f0 9d e9 ff 3c ea ba 92 3e 78 06 48 3e 08 85 a5 3e
       0.031239325 0.2865823 0.19533718 0.32328057

conv2.bias f4 [16]
000000 9f ef 80 be 88 0f 00 bd ee 0a f8 be 74 2f f2 bf
       -0.25182816 -0.03126481 -0.4844584 -1.8920732
000010 59 ab e8 bc 9a df a6 3d cd a4 5f 3e e3 b2 24 bf
       -0.028402017 0.08148117 0.2184021 -0.6433546
000020 f0 20 d9 3f 2c 0b 5d 3d 66 a7 ae 3e ce c3 9a 3f
       1.6963177 0.053965732 0.3411209 1.2091005
000030 e1 d6 bb be 35 2b 2d bf 45 3d 8f 3f 45 34 0b bf
       -0.36687377 -0.67644054 1.1190573 -0.5437663

fc1.weight f4 [120, 400]
000000 62 59 51 3b d2 00 2e 3c 53 5c 5b 3d a3 a1 86 bd
       0.0031944145 0.010620313 0.053554844 -0.065737985
000010 18 0e b0 3d 3c cb 24 be 84 5e 99 bd 22 0f bd bd
       0.08596438 -0.16093153 -0.074887305 -0.09231402
000020 a6 2f 5c bd 75 c2 8a 3c 42 87 95 bd 5b 63 04 be
       -0.05375638 0.016938427 -0.07301189 -0.12928526
000030 d4 23 cc bb 16 47 4e bd 9c a6 ee 3d 3c 5c be bc
       -0.006229857 -0.05036076 0.11652872 -0.02323734
000040 2a bf 28 bd 74 64 a9 b7 6b 61 c4 bd 2b aa d0 3d
       -0.041197933 -2.0193147e-05 -0.095888935 0.10188707
000050 9a f8 40 3e 22 50 ac 3d 32 7f cd 3d ee 69 03 3d
       0.18844834 0.084137216 0.10034026 0.032083444
000060 25 3e 4e 3d c4 5a ce 3d 20 9e 99 3d e7 be 87 bd
       0.050352234 0.10075906 0.07500863 -0.066282086
000070 07 5e 58 be dc 29 51 3c c2 a0 89 bb 7a 3d d9 ba
       -0.21129619 0.012766328 -0.004200072 -0.0016574108
000080 32 ed 9a bd 6a d0 8a bd 73 cb 92 3c 7b db c5 bc
       -0.07564773 -0.06778033 0.017919278 -0.024152508
000090 81 85 06 3c 53 2a 19 3d d9 2c 89 3d 11 65 be 3d
       0.008210541 0.03739388 0.06698007 0.09296621
0000a0 db fb 19 3e 13 12 9b bd 2e 30 a3 bd 40 6a 31 bd
       0.15037481 -0.07571807 -0.07968174 -0.04331422
0000b0 22 b2 c3 3d 51 fb ee 3d 40 1b c7 3c ab 86 01 bd
       0.095554605 0.116690286 0.024304986 -0.03162257
0000c0 1a c2 c9 3c fd d7 85 3d c3 fd 4b 3d 8c 41 a5 3d
       0.024628688 0.06535337 0.049802553 0.08069143
0000d0 81 7b b3 bc 37 fb 45 bd b7 3f e3 bc 6e 80 21 bd
       -0.021909477 -0.04833528 -0.027740343 -0.03942912
0000e0 06 da 1a 3d 2e bb 01 3e 22 45 d2 3c 22 99 8a bd
       0.03780558 0.1266906 0.02566773 -0.06767489
0000f0 a9 03 51 3c 61 06 81 3c e5 6d 8e 3d 40 1c 9c bc
       0.01275722 0.015750112 0.069545545 -0.01905644
000100 eb 0c 57 3c 4c ae 99 bd 20 14 ea 3b a0 8f c6 bc
       0.0131256385 -0.075039476 0.0071435124 -0.024238408
000110 d4 b8 a6 3d 06 dc 15 3c b7 62 e0 bc 4a 00 49 bd
       0.08140722 0.009146696 -0.02739082 -0.04907254
000120 a5 3b 0b be 07 cc 8c bd 24 54 4d bd 41 71 69 bb
       -0.13596971 -0.06874853 -0.05012907 -0.0035620483
000130 5e c5 34 bd c4 69 c9 bb 05 8b 27 bb 92 38 fe bd
       -0.044133537 -0.0061466414 -0.002556504 -0.12413134
000140 15 d9 18 bd 6b 7b a5 bd 39 80 f0 bd c0 aa 8e bd
       -0.0373164 -0.08080181 -0.117432065 -0.06966162
000150 f0 50 b7 bc 25 0a e0 bd 6e ed 3d bd e5 ab 6f 3d
       -0.022377461 -0.10939435 -0.04636901 0.05851354
000160 80 20 70 3d 42 44 55 bd c5 36 98 bd 5f 46 02 be
       0.058624744 -0.05206705 -0.074323215 -0.12722157
000170 4d 76 75 bc d2 05 68 bd 47 65 a1 bd c9 dc bd bc
       -0.014981818 -0.056646176 -0.07880645 -0.023176568
000180 6b 69 9b bd 86 8b 3a 3c ce 26 f2 bd 5e 22 9c bd
       -0.07588466 0.011385804 -0.11823808 -0.076237425
000190 c7 60 24 bd b8 99 a3 bd 32 b0 e5 bd 48 24 fd bd
       -0.040131357 -0.07988304 -0.11215247 -0.12360436
0001a0 19 4c c9 bd 20 87 be bc b7 4a 29 3d 1a 75 d4 bb
       -0.098289676 -0.023257792 0.04133102 -0.006483686
0001b0 04 ef c2 bd 6f a6 79 bd a1 06 1c bd 01 e7 c3 3d
       -0.09518245 -0.06094974 -0.03809226 0.09565545
0001c0 32 82 1b 3d b8 19 f4 bd 2b d6 47 bd 88 b4 82 3c
       0.03796596 -0.11918968 -0.04878823 0.015955225
0001d0 5b 50 42 3d 90 83 87 ba b4 bc 98 3c 68 74 14 bd
       0.047439914 -0.0010338891 0.018644668 -0.036243826
0001e0 1c d0 46 3c 4d c5 bc 3d 78 f4 7e 3c 00 7d 8e ba
       0.012134578 0.0921732 0.015561216 -0.0010870993
0001f0 bf ad 55 bd fb 39 c0 3d a0 16 77 3c b5 cd 7b bd
       -0.05216765 0.09386059 0.015081078 -0.061475474
000200 37 12 25 3c 87 d0 48 bc 17 d0 b6 3d 78 7e 59 bd
       0.010075144 -0.012256748 0.08926409 -0.053099126
000210 df ce 6e bd 08 ed 50 3b 45 7e a7 3d 93 ef 97 3c
       -0.058302756 0.0031879563 0.08178381 0.018546855
000220 3d a3 8e bd 7b 42 86 3a 67 e7 fb 3c fc 40 41 3c
       -0.06964729 0.0010243201 0.03074999 0.011795279
000230 5c 6d 47 bd 71 7b 7e bd 9e 04 97 bb 03 e8 76 3d
       -0.048688278 -0.06212944 -0.0046087047 0.060279857
000240 c0 cb f4 bc 35 d0 a5 b9 37 15 bc bd 9c 9e bc bb
       -0.029882312 -0.0003162638 -0.09183734 -0.0057562124
000250 ac 96 61 3d 9c 7b 3e bd 3f 09 24 3c 06 4a 99 3b
       0.055075333 -0.0465046 0.01001197 0.0046780137
000260 85 76 49 bd f9 47 86 bc 73 fb 76 3c 77 01 47 be
       -0.049185295 -0.016391741 0.015074599 -0.19434153
000270 da 8a 26 bc d1 d8 21 3c 2e 19 9f bd 26 7c 00 be
       -0.010164941 0.009878353 -0.077684745 -0.12547359
000280 40 59 1e be 18 13 cd bc b2 25 15 bd 20 9b 58 3d
       -0.15463734 -0.025033519 -0.036412902 0.052882314
000290 32 ef 82 3d 4e e4 a0 bd 3a a9 29 3e 71 81 69 bc
       0.06393279 -0.07856046 0.16568461 -0.014252053
0002a0 71 ec 96 3d d6 ed 6a 3d 88 93 b0 bb 1d ad e4 3d
       0.07369316 0.057355724 -0.005388681 0.11165831
0002b0 17 61 f2 3d 7f 27 97 3d 15 31 9f bd e5 39 49 bc
       0.11834925 0.0738058 -0.077730335 -0.01228187
0002c0 f2 54 00 3e bc 99 d8 3c a3 a2 da 3d 6c 55 cf 3d
       0.12532404 0.026440494 0.10675552 0.10123715
0002d0 d4 7b 96 3d 4c f4 91 3d 71 b7 6c 3c f4 1e bb bd
       0.07347837 0.07126674 0.014448033 -0.09136763
0002e0 dc 28 19 3e 4f 6c ac 3d 58 fd 71 3d bc 0a ba bc
       0.14956993 0.08419096 0.059079498 -0.022710197
0002f0 a8 1a 25 bc 09 d6 30 bd bf 92 ca 3d aa ec 94 3c
       -0.010077156 -0.04317287 0.09891271 0.018179256
000300 c4 0f 4f 3d 37 9b 69 3d 81 90 90 bd e5 c4 02 3e
       0.050552145 0.05703279 -0.07058812 0.12770422
000310 a3 ab 35 bc 65 d3 15 bd dc bc 06 be f1 d4 b8 ba
       -0.011088285 -0.036578555 -0.13157982 -0.0014101547
000320 01 ea 4f bd ae 7b b0 bd b2 6c 91 bd f0 13 be bd
       -0.050760273 -0.0861734 -0.0710081 -0.092811465
000330 38 e8 23 be 0b 75 d8 bd 7b f0 25 be 1f 75 db bd
       -0.16006553 -0.10569199 -0.16205017 -0.107156985
000340 81 2d 2b be e1 f1 9e bc 02 e9 f1 bd cb cc 45 bd
       -0.16716577 -0.019402446 -0.11812021 -0.04829101
000350 25 f1 c1 bd 59 09 f4 bd 50 cc d1 bd 91 ce b6 bd
       -0.09469823 -0.119158454 -0.10244048 -0.08926118
000360 0c 0a e5 3c 25 e5 6a 3d f5 e7 1f bd f0 fa 76 bd
       0.027958892 0.057347436 -0.03903957 -0.060297906
000370 08 09 fd bd 21 59 0c bc 1f bd a0 3d 97 87 9a bd
       -0.12355238 -0.008566172 0.07848572 -0.07545393
000380 80 3e 68 be a4 a7 69 bd 01 45 d0 bd 48 ae 26 bd
       -0.22680092 -0.05704464 -0.101694115 -0.04069355
000390 ca 65 6f 3b 3f bb 5c 3d 35 f2 b6 bc df 93 5b bc
       0.0036529177 0.05388951 -0.02233229 -0.013401954
0003a0 18 7c 9a bd 3b a1 cf 3d c2 a2 70 3d 0a 9c 74 3d
       -0.075432 0.10138174 0.058748968 0.059719123
0003b0 39 f6 aa 3d 89 d6 5f 3d 90 ac d7 3d 56 9a 17 3d
       0.083477445 0.054647956 0.105309606 0.03701242
0003c0 bb a3 b7 3d 3c ba a1 3c f7 df 72 3d bb 76 f9 3d
       0.08966776 0.019742124 0.05929562 0.12180849
0003d0 d3 82 f8 3d 3e db 80 3d c2 ad 95 3d 58 35 37 bb
       0.12134328 0.06291817 0.07308532 -0.002795538
0003e0 3f 23 bc 38 45 7c 16 3e 51 42 88 bc fa 36 5e bc
       8.971104e-05 0.14695843 -0.016633185 -0.013562912
0003f0 59 e6 c6 bd 32 a8 ec bd 2c 48 f5 bd c8 8f 3c be
       -0.09711904 -0.11555518 -0.11976656 -0.18414223

fc1.bias f4 [120]
000000 42 e7 1a 3d 54 86 bf bd 5a f5 00 3e 86 36 07 bc
       0.0378182 -0.09351793 0.12593594 -0.0082527455
000010 0e 51 67 3e 37 ec 2a 3e 05 f9 62 3c 06 6e 4e bd
       0.22589514 0.16691671 0.013853316 -0.050397895
000020 d9 a6 55 3d 15 93 6d 3e 72 e7 9d 3d 4e 36 8b 3d
       0.05216107 0.23200639 0.0771016 0.06797467
000030 e7 f7 87 bd ff e4 79 3d b7 c3 1a 3d 20 34 37 bd
       -0.066390805 0.061009403 0.037784304 -0.044727445
000040 5e 9a 45 3e e2 01 ff 3b 14 fb 67 3e 62 76 a3 bc
       0.19297168 0.007782207 0.22654372 -0.01995391
000050 58 3f 3e 3d ea 00 bb 3e 61 19 41 be 58 da 07 3e
       0.046447128 0.36524135 -0.18857338 0.13266885
000060 2f 7e 46 3e 7f 72 64 3c e7 9b 9b bd 80 38 0f 3e
       0.19384073 0.013943314 -0.075980954 0.13986397
000070 b7 c5 6f 3e 03 4f 0d be 4b 13 4c 3c d8 55 e9 3d
       0.23415266 -0.13799672 0.012455772 0.113933265
000080 6e 03 9c 3c 0e fa 33 3e a0 83 9d 3d 2c bd b4 bd
       0.019044604 0.17575857 0.07691121 -0.08825144
000090 e2 a0 00 be 85 11 dd 3c 43 7e 2a 3e 1c c4 e5 3b
       -0.12561372 0.026985893 0.16649728 0.0070119034
0000a0 eb 37 8b 3d ec 48 24 bd bc 1a d8 bd 27 5a f4 bd
       0.06797775 -0.040108606 -0.10551974 -0.11931258
0000b0 7e 04 3b 3d 3b e3 d7 3c 0b 0f a7 3c ce 46 b9 3c
       0.04565858 0.02635347 0.020392915 0.02261677
0000c0 fb a8 73 bd 75 48 42 bb c4 ba 78 3d f2 bb ce 3c
       -0.059487324 -0.0029645239 0.06072499 0.025236104
0000d0 c0 a5 60 3b 54 32 36 3d 4e 1f 10 bd b9 c0 a5 3b
       0.0034278482 0.04448159 -0.035186104 0.0050583747
0000e0 3a 8c 8f bc 76 e2 2b 3e 49 28 82 bd b2 36 60 be
       -0.01752292 0.16785607 -0.0635534 -0.21895865
0000f0 14 c2 26 3d fb 87 34 3e 1d b6 d4 bd 19 fc 15 3e
       0.04071243 0.17629997 -0.10386298 0.14646949
000100 11 29 94 bd b4 7c d8 ba 63 3d 0d be 53 88 14 3e
       -0.07234395 -0.0016516657 -0.13792948 0.14505129
000110 53 52 d2 bb 7b 48 95 3e dc 04 8c 3c 78 d5 9d 3c
       -0.006418505 0.2915686 0.01709216 0.019266829
000120 f0 96 e4 bc 62 72 0c 3e 12 a1 45 be 42 94 4a 3e
       -0.027904004 0.13715509 -0.19299725 0.19783118
000130 31 f7 f2 3c 24 b3 79 3d d0 76 81 3e 0d c1 79 3d
       0.029658886 0.060961857 0.2528596 0.060975123
000140 d8 e8 c8 3d 20 90 87 3c c1 cd 68 bd d9 82 c0 3c
       0.098100364 0.016548216 -0.056836847 0.023499893
000150 8e 41 0c 3d 76 50 4a 3d 71 99 51 3e a3 f7 10 bd
       0.034242205 0.04939314 0.2046869 -0.035392415
000160 bf 1b 14 3d 94 c0 90 bd fc cd 11 3e 43 86 bd 3d
       0.036159273 -0.07067981 0.14238733 0.09254124
000170 3b 07 ca 3d eb 84 1f be ab 10 ed 3d b4 5e 3b 3a
       0.0986466 -0.15578048 0.11575445 0.0007147596
000180 80 6e d8 bd 9b 94 3a bd 4a 3a 9f 3d 3d 15 6d 3d
       -0.10567951 -0.045551877 0.0777479 0.057881583
000190 c3 48 8d 3d 4f 59 33 3d 8b ce 2b 3e 18 ee 32 3e
       0.06898644 0.043786343 0.16778009 0.17473638
0001a0 6b 35 e5 3d 5c 5b 54 3d b1 0e 47 3e 39 1e b8 bd
       0.11191829 0.05184494 0.19439198 -0.089901395
0001b0 98 f5 37 bd b6 19 ad bd b3 3a 70 be 68 6e 6c be
       -0.04491195 -0.084521696 -0.23459892 -0.23088992
0001c0 b1 f0 ad 3e d3 7a 8e bc 20 2c 91 3d 07 2b 81 bc
       0.33972695 -0.017392552 0.07088494 -0.015767587
0001d0 cc f9 03 be 52 71 fd bd 80 e7 cb bd ee 3b a5 bd
       -0.12888259 -0.1237513 -0.099562645 -0.08068071

fc2.weight f4 [84, 120]
000000 6e 33 a9 bc 40 96 16 3e 6c a5 06 be ee dc 6f bd
       -0.020654406 0.14705753 -0.13149041 -0.058560304
000010 fd 04 05 3e f6 78 18 be 68 fb dc 3b 64 ee 21 3d
       0.12990184 -0.14889893 0.006743837 0.039533988
000020 23 17 63 bd af 30 e8 3b 86 37 87 be 86 e6 89 bc
       -0.055441987 0.0070858817 -0.2640955 -0.016833555
000030 46 58 c8 3c bd 04 2c bd eb 44 81 3d ff 02 6a be
       0.024456155 -0.041996706 0.06311973 -0.22852705
000040 bc 7f 0a 3e 9e 4f a6 3d 98 e8 a6 3d 94 4f 05 3e
       0.1352529 0.081206545 0.081498325 0.13018638
000050 d8 57 f5 bc e0 90 4d 3e 29 09 21 3e f0 69 73 be
       -0.029949114 0.20074797 0.1572615 -0.2377088
000060 fc 97 cd 3d f6 3c 27 be c9 39 4a be b8 1f 4a b9
       0.10038754 -0.16331849 -0.19748606 -0.00019276037
000070 a0 11 6d 3b 15 2f 33 be 33 9a 84 bc d6 8e 2c 3d
       0.0036173835 -0.17498429 -0.01618681 0.042128406
000080 d7 9b cc bb 7c 8c 25 3d de 75 b2 3c 05 1d 0f 3d
       -0.0062441635 0.04041718 0.02178472 0.034939785
000090 ad 7b d6 bd d6 8b 20 3d 7a 4c e3 3d 71 97 6d 3d
       -0.10472808 0.039195858 0.11098571 0.058005754
0000a0 34 d8 44 be 38 03 ea 3c 11 3e 60 be c4 84 25 be
       -0.192231 0.028565988 -0.21898676 -0.16163927
0000b0 7f 7d d2 3d 52 2d 6b bd 1b 9e be 3d b4 a4 1f be
       0.10277843 -0.057416268 0.093075 -0.15590173
0000c0 e1 2d 9b bd fe d2 4d 3d 52 e3 bf bc 85 2d 8a 3d
       -0.0757711 0.050250046 -0.023423824 0.067469634
0000d0 7e 63 da bd 87 c7 a3 bd 83 d7 3d be ec 10 36 3d
       -0.10663508 -0.07997041 -0.18539242 0.04444973
0000e0 43 89 33 bd c3 53 1f 3e db bd 88 bd 4d 9b 0d be
       -0.043832075 0.15559296 -0.06676837 -0.13828774
0000f0 21 c8 27 be 35 9b e2 bd 0b 7d e1 bd db 49 30 be
       -0.16384937 -0.1106476 -0.11010178 -0.17215674
000100 aa a0 65 3e 33 93 b3 3c 40 ba 1e be fe 03 fd 3c
       0.2242457 0.021920776 -0.15500736 0.030885693
000110 c3 da 33 3e 85 09 0f 3d 76 a2 10 3d ea 61 16 be
       0.1756392 0.034921188 0.035311185 -0.14685789
000120 b8 10 de 3d cb 00 b8 3d d3 98 fe bc 7b 22 ce bd
       0.108430326 0.08984526 -0.031078732 -0.100651704
000130 44 0a aa bc 35 69 16 bd 70 27 5a 3e c4 58 fd bc
       -0.020756848 -0.036721427 0.21304107 -0.030926116
000140 cd 24 5c 3e 7b 7c 87 bd 10 0e 71 bc a6 69 32 3d
       0.21498413 -0.0661554 -0.014712825 0.043557785
000150 a5 83 82 bd 64 bc a0 bd c4 a2 17 be bb 00 c1 bd
       -0.063727655 -0.07848433 -0.14808184 -0.094239675
000160 01 49 17 3d e2 8e 3b be 7e 53 42 3d 8b 77 dd bb
       0.036934856 -0.18316224 0.047442906 -0.0067586354
000170 a9 dc 5b 3e 35 5f 8a bd 9c 82 a5 3d 10 a3 43 be
       0.21470894 -0.067564406 0.080815524 -0.19105172
000180 64 1a 8a 3d 5f cb f0 3d 74 39 28 3e 72 b0 08 3e
       0.06743315 0.1175754 0.16428167 0.13348559
000190 96 7d a5 3c a8 ab bc 3b 29 82 74 3e 7f a9 42 3d
       0.020201486 0.0057577677 0.23877777 0.047524925
0001a0 c7 63 f8 3d 37 b9 cc bd a1 12 1c 3e 1f 8d f6 bb
       0.12128406 -0.099962644 0.15241481 -0.007524147
0001b0 7c 6c ea bc e2 5e 55 be b2 91 80 bd 75 3b ca 3d
       -0.028616183 -0.20836976 -0.06277789 0.09874622
0001c0 7a 9b 0d 3e 9a a9 2c 3d ba 4d fe 3d 7d c4 0a be
       0.13828841 0.042153932 0.12417169 -0.13551517
0001d0 b4 ff 9b bd 8c 08 97 3d 47 c5 8f be 98 f0 b6 bd
       -0.07617131 0.07374677 -0.28080198 -0.08932608
0001e0 bb b7 3a be c9 30 04 3e e3 22 a4 3d 6d bf 02 3e
       -0.1823415 0.12909235 0.080144666 0.12768336
0001f0 f2 c0 50 be 1f 0b 80 bd 88 8a a8 3c d1 59 c9 bc
       -0.20386103 -0.06252121 0.02057387 -0.02457896
000200 6c 75 a8 bd d8 13 ba 3d 4b b4 19 be 01 1f f0 3c
       -0.082255214 0.09085816 -0.15010183 0.029311659
000210 90 2a 42 bd 8f 6e fd 3c 99 5d b6 3b ff e9 81 3d
       -0.047403872 0.030936508 0.005565357 0.06343459
000220 5e 7c fc 3d 3c a6 83 3d d1 ea d4 bc 95 05 87 bc
       0.12328409 0.06428191 -0.025990875 -0.016482154
000230 e5 d1 c5 bd d9 25 83 3e b5 85 d8 bd fa d0 bf 3c
       -0.09659175 0.25614813 -0.105723776 0.023415077
000240 61 20 36 3d ed 11 d5 3d 79 0b 5b 3d 24 d0 2e 3d
       0.044464473 0.1040381 0.053477738 0.042678967
000250 2c 35 01 bd 6d 7b 94 bc 71 0f d6 bd 23 49 d4 bc
       -0.03154485 -0.01812526 -0.10452164 -0.02591378
000260 4e 4d ef 3c bc cb 98 3d c0 41 ba bd 84 aa 2b bb
       0.029211666 0.07460734 -0.09094572 -0.0026194165
000270 6c af 8d 3b 82 af cc 3d b9 94 83 bd 37 b3 1b be
       0.0043238904 0.09994413 -0.06424851 -0.15205084
000280 5f a4 ac 3d 58 55 ee 3c ec 01 54 be 8b ec 8f bd
       0.08429789 0.02909343 -0.20703858 -0.07027539
000290 cb fc 80 3c 7a fe 8a 3c 5b 17 53 3d 6b 81 8b bb
       0.015745541 0.016967047 0.051535945 -0.004257371
0002a0 e0 c6 b1 3d 30 e4 a3 bd bd 28 b7 bd 6c 82 fa bc
       0.086805105 -0.08002508 -0.08943317 -0.030579768
0002b0 c5 9b 12 3d be d0 36 be 23 23 5b bd 88 83 f9 bc
       0.035793085 -0.17853066 -0.053500306 -0.030458227
0002c0 27 e8 be bd bc 2e 21 3d 9b 05 58 3c 0f ec be bd
       -0.09321623 0.03935121 0.01318493 -0.09322368
0002d0 78 96 90 bb e7 99 2f 3e 09 f9 c6 bd e6 36 da bd
       -0.0044124685 0.17148553 -0.097154684 -0.10655002
0002e0 02 4f 2f be 92 ba 25 3e 61 34 b1 bd 5f 05 60 bd
       -0.17119983 0.16184452 -0.086525686 -0.054692622
0002f0 f9 45 21 be af 20 8f bc bc 2b cd bb 09 55 08 bd
       -0.15749349 -0.01747164 -0.006261317 -0.03328422
000300 09 e3 22 bd 37 53 f1 3d a3 f0 c9 bd 7a d6 50 3d
       -0.0397673 0.1178345 -0.09860351 0.05098579
000310 88 35 01 bd bc 42 ca bb 0d 65 45 3e 97 66 a1 3d
       -0.031545192 -0.006172506 0.19276829 0.078808956
000320 15 e5 ab 3d 5f ed 4f bc 5a 68 af bc 8d 9e 5c 3e
       0.08393303 -0.012690871 -0.021412063 0.21544857
000330 6c 3f 8c 3d 43 6f c4 3d b0 70 8a 3d 25 ab 78 be
       0.06848034 0.09591534 0.06759775 -0.24284036
000340 15 68 33 3e 58 7c 99 bc 2b 34 88 3d 70 4f b8 bd
       0.17520173 -0.01873605 0.06650575 -0.089995265
000350 f0 b7 4e 3e 20 60 98 bc bb 36 ad bd dc 74 81 bd
       0.20187354 -0.018600523 -0.08457705 -0.06321117
000360 d2 80 81 3d 85 a3 e7 3d ee dd 5d 3d 0d 9c 4d 3c
       0.06323399 0.11310486 0.054166727 0.012549412
000370 41 2e b1 bd 2a e7 42 3e 96 dc ce 3d 12 3f b6 3c
       -0.086514 0.19033495 0.10100667 0.022246871
000380 54 89 f5 bc 89 d0 8f be 5f 4a 32 3e 2b bf d4 3b
       -0.02997271 -0.28088787 0.17411183 0.0064925156
000390 fb 61 1f 3d 4c 5d 4c bb ae 55 41 3d 5d fd 26 be
       0.0389118 -0.003118354 0.04720085 -0.16307588
0003a0 69 b9 cb bd 39 82 0a 3e 2c 59 0f 3b 13 48 b7 3c
       -0.099474736 0.13526239 0.002187322 0.022373235
0003b0 23 9b a8 bc 24 19 a8 3b 52 ab f6 bd 29 0c bd 3d
       -0.020581787 0.00512995 -0.120443955 0.09230835
0003c0 82 5d 8e 3d ac 0b cc 3d c8 22 30 bc 29 a8 db bd
       0.06951429 0.09963164 -0.01075048 -0.107254334
0003d0 4d a9 d7 bd be a0 a8 bd a6 26 45 bd f8 29 d1 3d
       -0.105303384 -0.08233784 -0.04813256 0.10213083
0003e0 56 b4 25 3e bf 17 97 3d bd 3a ce 3d 07 cb 93 3d
       0.16182074 0.07377576 0.10069797 0.07216459
0003f0 99 86 b6 3c db bd ad 3d eb eb 6f bd 08 2e 87 bd
       0.022280978 0.08483478 -0.0585746 -0.06600577

fc2.bias f4 [84]
000000 c3 6e 7d 3e 92 44 98 3e 38 4c ee bc 26 91 8d 3d
       0.24749283 0.29739815 -0.029089078 0.069124505
000010 57 ad a8 3d ed 7f 8c bd 48 cb 81 3e f1 fb 8e 3e
       0.08236187 -0.068603374 0.25350404 0.2792659
000020 1b fb c7 3d ec 39 aa 3d f7 8b 43 3e c1 84 83 bd
       0.097646914 0.08311829 0.19096361 -0.06421805
000030 c6 d5 6c 3e 03 9d 00 3f 05 40 90 3e 21 b8 02 3f
       0.23128423 0.5023958 0.28173843 0.5106221
000040 7d 87 0a bd a7 d9 83 3e e3 98 6d 3e 11 56 23 be
       -0.033820618 0.25751993 0.23202853 -0.159508
000050 16 7e a6 3d b3 19 b9 3c 7f b7 57 bd 84 d0 78 3e
       0.08129518 0.022595262 -0.05266523 0.24298292
000060 d9 d0 7b 3e d8 29 5e 3e e9 34 d9 3d e6 8e e2 3b
       0.24591388 0.2169565 0.10605795 0.0069140075
000070 1f b4 3b 3e 7d ee 13 3f 9a 03 16 3e 30 20 d7 bc
       0.1833043 0.5778578 0.14649811 -0.026260465
000080 21 a4 ef bd 7e eb ed bc 46 c0 a1 3d fc 81 4b 3e
       -0.11701227 -0.029042955 0.078980014 0.19873804
000090 15 cb 72 bd d7 1d c2 3e ac eb c5 3d 2a e7 cd 3e
       -0.059275705 0.3791339 0.096640915 0.40215427
0000a0 a6 5d 98 3e 30 79 1e 3e 9d d4 87 bd ad 92 f0 3c
       0.29758948 0.15475917 -0.0663235 0.029366815
0000b0 41 00 b2 bd 23 da fd 3d f0 40 42 3d 9a 43 94 3d
       -0.08691455 0.12395122 0.04742521 0.072394565
0000c0 db 35 88 3d a1 89 d1 bd 62 9e 5e bd 40 43 a5 3c
       0.06650897 -0.10231329 -0.054350264 0.020173669
0000d0 22 eb c8 bd 73 72 ed 3d d8 f8 7d 3e e0 72 b2 3d
       -0.09810473 0.11594095 0.24801958 0.08713317
0000e0 dd 65 3f 3e 31 75 55 be 7f 50 83 3d 06 5e be bd
       0.18691202 -0.20845486 0.06411838 -0.09295277
0000f0 86 1b 85 3e e9 93 a4 3d 8a 3c c3 bd ee 85 a5 3d
       0.2599756 0.08036024 -0.09533031 0.08082186
000100 0c d0 08 3c 2e d0 0c 3f 94 72 f0 bd 4c e6 33 3d
       0.0083503835 0.55005157 -0.11740604 0.0439208
000110 82 3b c3 3d 28 93 59 3b 2b 1c 58 3e f9 e7 62 3e
       0.095328346 0.0033199284 0.21104495 0.22158803
000120 26 eb ab bd ec fa 07 3e 44 ab b2 3c e6 f5 45 3d
       -0.083944604 0.13279313 0.021810181 0.04833021
000130 c5 47 e4 bd 24 b6 00 be bb 7d cc bd b2 7f 16 3e
       -0.111465015 -0.12569481 -0.09984919 0.1469715
000140 5c 93 ae 3c b7 b6 88 bd f1 f1 6b 3e 7f 7f d0 3e
       0.0213105 -0.06675475 0.23041512 0.40722272

fc3.weight f4 [10, 84]
000000 e4 6a 71 be 5d 4e 71 bd 7b 78 19 be bd 1f f3 bd
       -0.23575932 -0.058912624 -0.14987366 -0.11871288
000010 c1 58 68 3e 2a 2d c6 bc 68 d8 aa bb 6b e3 ee bd
       0.22690107 -0.024191458 -0.005213786 -0.1166447
000020 9f 59 d2 bd 63 bf 43 3e 55 82 6b 3e 67 4e bc be
       -0.10271 0.19115977 0.22998936 -0.36778566
000030 47 f0 45 3e a9 6c 0a be 1f 9f 8f 3e 0f d6 b4 be
       0.1932994 -0.13518013 0.28051087 -0.35319564
000040 e2 b7 af bd e5 b1 35 be 1b 99 c8 bd d4 3c 0d be
       -0.08579995 -0.17743643 -0.097948276 -0.13792735
000050 01 e1 ca bd ce 77 23 bc 53 70 1a be d6 5c 9c bd
       -0.09906197 -0.009977294 -0.15081911 -0.076348945
000060 46 e3 a3 3d 8c 7a 96 be c5 7e 60 3e d9 19 16 3e
       0.08002333 -0.2939037 0.21923359 0.14658298
000070 cb d8 d3 bc e6 0b 2b be bc f9 64 be 24 fe c4 3c
       -0.02586021 -0.16703758 -0.22360891 0.024046965
000080 0d 48 9d 3e 0b 31 19 3e 42 30 a5 3d 64 79 13 3d
       0.30719033 0.14960115 0.08065845 0.03600444
000090 3f 06 7d 3e d9 bd 16 3d 7e 2f aa bd c5 b9 d3 3d
       0.24709414 0.036802147 -0.0830984 0.10338167
0000a0 a0 29 91 3e 12 af c8 3d 67 6d b9 bd 92 b4 bb 3e
       0.2835207 0.09799017 -0.0905407 0.36661202
0000b0 ff 3e f1 3d 6b 0e 14 be 10 8b 55 3e f5 c8 58 be
       0.11779594 -0.14458625 0.2085383 -0.21170409
0000c0 a0 65 6b 3e 8a 57 95 bd 3e 42 b4 be 93 7e 37 3e
       0.22987986 -0.072920874 -0.3520679 0.17919378
0000d0 fc f4 f4 bd a1 47 68 3b 3e 52 a2 3d 50 b7 2d 3c
       -0.119607896 0.0035443085 0.07925843 0.010602787
0000e0 fd e3 15 bd e6 4d 47 3e 49 d4 01 3e 93 9f 7d 3e
       -0.03659438 0.1946331 0.12678637 0.24767904
0000f0 40 0c aa be d3 13 f7 3b d3 4b 39 be 63 7a 07 be
       -0.3321247 0.007540205 -0.18095331 -0.1323028
000100 84 9b 29 3e 20 a7 df bd d9 15 40 3e 28 01 91 3e
       0.16563231 -0.109205484 0.18758334 0.28321195
000110 f0 3a e6 bd 81 09 d7 3c 21 d1 2f 3e 0a 0e 35 3e
       -0.1124171 0.026249649 0.1716962 0.17681137
000120 b8 df ef 3d 77 23 24 3e f5 4b 8d 3e 64 eb a7 be
       0.11712593 0.16029154 0.27597013 -0.32796776
000130 6c 06 5f 3e f7 8c 9a 3d 07 9d bd bc 2f dd 03 3d
       0.21779794 0.07546418 -0.023146166 0.03219336
000140 a3 cf 93 3d e0 fd 7d 3e d4 1d 2e be b8 a1 f9 bd
       0.07217338 0.24803877 -0.17003566 -0.121890485
000150 6f 36 e2 bd dc 0a 75 be 2d 2b f2 3d bb c6 20 be
       -0.11045539 -0.23929924 0.118246414 -0.1570081
000160 40 8e 11 bd 8b aa 2b bd 01 2f 26 be 35 fe 22 3c
       -0.03553605 -0.04191069 -0.16228868 0.009948303
000170 16 70 2e be ab ba 2d 3e 93 55 ba be 66 48 a5 3d
       -0.17034945 0.1696574 -0.36393413 0.080704495
000180 b4 d5 44 bd 2f 4a e6 be 2c 79 90 be 5c 9a 19 bd
       -0.048055366 -0.44978473 -0.28217447 -0.037500724
000190 ed c9 75 bd be a5 8f bd 50 a8 c5 3d e1 29 6f 3e
       -0.060007025 -0.07014035 0.09651244 0.2335582
0001a0 85 9b 29 be f6 53 e7 3d 2b c2 13 3d f3 bd 7f be
       -0.16563232 0.11295311 0.036073845 -0.24974804
0001b0 04 50 79 bd 19 c4 9e be fc 85 4c be fd 66 00 3e
       -0.060867324 -0.31008986 -0.19972986 0.12539287
0001c0 7c ed 80 3e c8 ec 78 bd 11 f4 4c be d3 07 7d bd
       0.25181186 -0.060772687 -0.20014979 -0.06177504
0001d0 98 1e 42 3d 0a db 6a be 7b ef cd 3e 69 ca 4d be
       0.047392458 -0.2293512 0.40221772 -0.20096745
0001e0 e8 09 6b 3d b4 09 cc 3c 1d 45 e1 3d e5 c5 99 be
       0.057382494 0.02490697 0.109995104 -0.30033794
0001f0 93 14 b7 be 45 c9 33 3b 3e 99 f1 bd 96 12 01 bd
       -0.35757884 0.0027433198 -0.11796807 -0.031511866
000200 ef d8 27 be 75 81 99 3e f7 c1 ea bd 45 28 62 be
       -0.16391347 0.2998158 -0.11462777 -0.22085674
000210 de 0a ce bd d9 fc 27 be 77 7b c0 3e 4d 20 ca bc
       -0.100606665 -0.16405047 0.37594196 -0.024673605
000220 d4 c9 0f 3e c0 32 92 be 9f f0 89 be cd d2 b5 be
       0.14041835 -0.28554344 -0.26941392 -0.3551239
000230 09 e1 a7 3d 4c 4e ab bd a5 b7 d1 3e 4e d8 52 3e
       0.08197219 -0.08364543 0.40960422 0.20590326
000240 fd b7 61 3d 97 61 01 3e 24 d5 5d 3e b3 7e 74 3e
       0.055107106 0.12634884 0.21663338 0.23876457
000250 dd f1 c0 3c 9a ac 11 be 44 98 76 3e d3 dc 8d 3e
       0.02355283 -0.14225999 0.24081522 0.27707538
000260 29 52 14 be 82 2b 7a 3e 1a 8f 71 3e 23 88 77 3e
       -0.14484467 0.2443066 0.23589745 0.24173026
000270 7d 95 35 3e 12 be fa bd 4f 53 11 be cd 05 86 bc
       0.17732807 -0.12243284 -0.14191936 -0.016360188
000280 c6 52 44 be d6 c7 17 3d c5 f8 63 3e b0 86 98 3e
       -0.191722 0.037055813 0.22262867 0.29790258
000290 87 a1 ee bd 50 7d 93 3e 8d 21 f7 bd b0 ef 18 be
       -0.11651903 0.28806543 -0.12066946 -0.14935184
0002a0 c7 40 aa bc 90 f2 39 3d 99 6b eb 3c 8b 9e 8d 3e
       -0.020782841 0.04539734 0.02873783 0.2766002
0002b0 66 d3 a1 bd 7a d1 f4 3d 1f 2d 0d 3e f5 4c a4 bc
       -0.07901649 0.11954017 0.13786744 -0.020056227
0002c0 79 af bc 3b fd a9 79 be e9 47 8a 3e a2 1e 1f 3c
       0.0057582227 -0.24381252 0.27007988 0.009711893
0002d0 9e e9 b5 bd 94 a8 23 3e 09 94 11 bd d2 5b 22 3e
       -0.088824496 0.15982276 -0.035541568 0.15855339
0002e0 c2 49 bf 3e aa 82 ac be b2 dc 31 3e db db cb 3d
       0.3736096 -0.3369344 0.17369345 0.099540435
0002f0 7e 93 88 be 0c af 94 bd 9f bd 36 bc bc 75 df 3e
       -0.26675028 -0.0725995 -0.011153608 0.43644512
000300 0a 80 b0 be 6c 67 05 3e a9 00 86 3e da 63 70 be
       -0.34472686 0.13027734 0.2617238 -0.2347559
000310 8b 8e 28 3e 0f 62 13 3e 97 d4 46 be b1 5c b9 3c
       0.16460626 0.14392875 -0.19417034 0.022627207
000320 5e c7 4d bd c1 1f 88 3e 61 10 c6 bc f8 8a 67 be
       -0.05023896 0.26586726 -0.024177732 -0.22611606
000330 23 5e 76 bc ce bc 1d be ac 9c 3b be 37 eb 92 3e
       -0.015037092 -0.15404055 -0.18321484 0.2869508
000340 b6 5e 2d 3b a9 df 92 3d 98 81 25 bd 91 05 21 be
       0.0026454157 0.07171566 -0.040406793 -0.1572478
000350 b4 04 2d 3d fe f3 cd 3d 32 51 66 bc 51 df 29 bd
       0.042240813 0.100563034 -0.014057444 -0.041472737
000360 fd 77 ed 3d 26 8e 4b 3e 1c ab 24 be 4c 0e 26 3e
       0.115951516 0.19878444 -0.16080898 0.16216391
000370 4a 91 c8 3c b8 f8 86 3c 02 f4 38 3d 2b 0e 96 3b
       0.024483342 0.01647602 0.04515458 0.0045793257
000380 9f a5 dd 3d 6c 9e 23 3e a2 3b 99 bd 5b 41 7e 3d
       0.10822605 0.15978402 -0.07482077 0.062074047
000390 27 6b a5 3e d9 ce f4 bd 7c 8f be bd 41 a3 82 be
       0.32308313 -0.119535156 -0.09304711 -0.25515178
0003a0 2b b6 95 3e a1 2e 12 be 49 d5 54 3e 96 fe 1a be
       0.29240546 -0.142756 0.20784487 -0.1513618
0003b0 c4 0f 71 be d6 be 5e 3e 93 ba 6a be 77 34 d6 be
       -0.2354117 0.21752486 -0.22922735 -0.41836902
0003c0 30 68 a9 3d b0 dd ba 3e fc c2 7c 3e 3a 30 0a 3e
       0.08271825 0.3649726 0.24683756 0.1349496
0003d0 57 e9 21 3e 9f 52 25 3e 36 e2 35 bd bd 67 7c 3e
       0.15811668 0.16144799 -0.044405185 0.24648948
0003e0 42 c0 d2 bd b6 98 a1 3d f0 b4 47 3e ad f1 1b 3e
       -0.102905765 0.078904554 0.19502616 0.1522891
0003f0 43 d6 05 3d 8e f4 e0 3a 97 14 b1 3d 77 67 81 bc
       0.03267504 0.0017162727 0.08646505 -0.015796406

fc3.bias f4 [10]
000000 54 6a bd be 28 15 2e bf 16 e8 17 be 0a 77 9d 3e
       -0.36995184 -0.6800103 -0.14834628 0.30754882
000010 f8 43 83 3f a8 6b cb bd 68 00 4f bd 8f 59 82 bd
       1.0255117 -0.09932643 -0.050537497 -0.06364738
000020 a7 f1 97 3e 5b 9a e2 3b
       0.29676554 0.0069153733
