Demo/CIFAR_Classifier/model/parameter.pt (torch_old, 249664 bytes, 10 tensors)

conv1.weight f4 [6, 3, 5, 5]
00000000: 4a94 953e f172 71be c492 523d 90df 3cbe
00000010: 2a0c 8fbe 2d28 003d 97cd 80bf f8b7 8e3d
00000020: 1d88 0f3f 94a0 bdbe c871 24bf 29ee 153f
00000030: 15d0 a3bd a4be 20bf 2aea 5f3d edf5 8b3e
00000040: f60c 443f ab15 c8be ea47 13bf 11e8 123e
00000050: fef0 6f3e 00b4 8bbe 02d2 f53d 078d 0c3f
00000060: b0d2 87b7 9c48 8a3e 07cc 31be ec08 883e
00000070: 586e 1a3d ece3 48bd cdd8 f63d 9e7c 3ebf
00000080: bca8 883e 9f5a 543f be1a 2a3c 9ef1 09bf
00000090: 4528 4b3f 9b34 ea3c 8f16 53be 91ef 1f3e
000000a0: 652c 0f3e 37a0 423f dc32 a6be 927a febe
000000b0: 1244 4e3e 30f9 02be c774 dcbe db6b 4c3d
000000c0: cd4f b23e 5a86 56be b584 5b3e 8cb9 73be
000000d0: 2e9a 8e3b 1a88 4dbe f5a0 05bd 4560 29bc
000000e0: 2d05 46bf d4e2 4f3e b402 143f 9ddd f9bd
000000f0: eae8 febe 601c 083f caef e8bc 1afe c3be
00000100: d76c 623e 1ee9 8f3e 8c87 1f3f 42dd bcbe
00000110: 4440 0fbf c0ea 733e aa2a 563e 0509 eebe
00000120: f477 b13c 4574 ab3e 1dcb 57be bec3 733e
00000130: 24d6 383e 5e91 1e3e f1f1 c43d c8d4 083e
00000140: 308e 7e3e 1a9c d63d b81f 123e e912 283e
00000150: b3a5 883e 2c82 bc3d cc0e 47be 8420 a1bd
00000160: dcb5 04be 13f5 a73d c3de 143e 315e b5bb
00000170: 6cb2 d03b e5b6 f3bd 6fce 14be 05de 003d
00000180: 5e73 39be 6398 54be 13c8 1dbe 0fc2 23be
00000190: 303d 79be 0fac a8be 611f 2bbe 9dec 8dbe
000001a0: 5fd1 29bc 405a 3bbe bd91 c9be 07e4 a3be
000001b0: 863f 93be edc4 8d3d 6884 23bc a8ad babe
000001c0: 83f6 eabe dc24 cbbd 3603 393e 5a51 bdbb
000001d0: 4123 b4be 8311 64be d6f0 fabd 0e9c 57bc
000001e0: 5eb4 b23d dfc5 25be 2b34 e3bc 2fbd 15bd
000001f0: 1f50 35bc 5de5 0a3e 1c9c 9a3d 8440 183e
00000200: 53f2 09bd 5e0e d13d f5d9 eb3c 2f9a 16be
00000210: e38c 06be dbf9 4cbd d44a 8f3d e272 463e
00000220: c089 05be a6eb 78bc fb00 00bd a851 a73c
00000230: 8c93 643e 5292 00be 8b53 19be 355f 833d
00000240: d8c5 8c3d ccce 683e 5740 ab3d bcfe 0f3d
00000250: 38b0 983c 59a1 a7bc 4848 783d a35b 17be
00000260: c528 81be 372a 24be 654c 153e 3040 dfbd
00000270: 6f7c a7be d8b2 8fbe b5e9 f6bd c7a7 a93c
00000280: 08aa 99be dd50 1a3d 6485 243e 00fb 723d
00000290: 0263 2abe fee2 8e3c a85d 693e d64d cd3e
000002a0: 3cff 563e 69fb 1ebc 85c9 2d3e 021e bc3e
000002b0: c7d3 4a3e 53aa a33e ed68 663e dbbc 633e
000002c0: 532e b4bd 2be7 d2bd e6f0 34be 56f0 e83d
000002d0: eb2d 813d b9a6 47be 6623 b1be 98b0 58bd
000002e0: 2275 303e 035b 9fbe 63c2 12be 1fe7 e43c
000002f0: 90cc a13d 9806 2cbe b817 29be 6471 213e
00000300: d31f 2e3e c9f2 083e 1c35 f2bd 5b14 44be
00000310: 11f1 a5bd ce6c 883c 2674 5fbd cffb 87be
00000320: 9891 9d3d 7de7 9dbd 337f 99be b7c1 68be
00000330: 8860 003e 57ee 323e 1570 64be eeb4 54be
00000340: 68d1 d73c 1dc6 f63c 1318 75bd bf3c e53d
00000350: bf5f d63e 2260 853e c14e 99bd a432 97bc
00000360: 171c 993e 85bd 013f 2fb7 ab3e 9a47 80bd
00000370: fee8 56be fabd 163e fec0 783e 6422 983e
00000380: fe97 153d b5ca eb3b 8e40 2ebd cdda bcbd
00000390: bb09 26be 7d64 fb3d 1020 c2be b2f4 6cbe
000003a0: e710 79be 42fd b5be 7353 263d f3cb e7be
000003b0: 5a61 e2be 0d9d 77be 985e 9fbe 0227 f5bd
000003c0: 3422 54be 113f 12be e375 c5bd bdb9 b7be
000003d0: 4aa6 913b 7558 86bd 00fa 6e3d c2dd 9ebd
000003e0: 02df 64be fd3b 963d e8ac fc3c 9171 093d
000003f0: 06c0 6f3e 2efc 4bbd 35a2 b73c f895 c63d
0.29214698 -0.23579003 0.051409498 -0.18444657 -0.27938968 0.031288315 -1.0062741 0.06968683
0.5606707 -0.37036574 -0.64236116 0.5856653 -0.07998673 -0.62790895 0.054666676 0.27336064
0.76582277 -0.3907903 -0.5753161 0.14346339 0.23431775 -0.27285767 0.120029464 0.5490269
-1.6191363e-05 0.27008522 -0.17362987 0.26569307 0.03770289 -0.04904549 0.1205307 -0.744089
0.26691234 0.82950777 0.010382352 -0.53884304 0.7935832 0.028589537 -0.20614074 0.15618731
0.13981779 0.7602572 -0.32460678 -0.4970289 0.20143154 -0.1279037 -0.43057844 0.049907546
0.34826508 -0.20949689 0.21437342 -0.2380125 0.0043518757 -0.2007145 -0.032624204 -0.010337894
-0.7735165 0.20301372 0.57816625 -0.122004725 -0.49787074 0.53168297 -0.028434653 -0.38279802
0.22111832 0.28107542 0.62316203 -0.36887556 -0.55957437 0.23820019 0.20914713 -0.46491256
0.021663643 0.33487144 -0.21073575 0.23805138 0.18050438 0.1548514 0.09616459 0.1336242
0.24858928 0.10478993 0.14269912 0.16413464 0.26688918 0.09204516 -0.19439238 -0.0786753
-0.12959999 0.08201041 0.14538102 -0.00553491 0.006368926 -0.11900119 -0.14531873 0.031461734
-0.18110415 -0.20761256 -0.15408354 -0.15991996 -0.24339747 -0.3294377 -0.16711189 -0.27719584
-0.010364859 -0.18296146 -0.39369002 -0.3200991 -0.28759402 0.06922326 -0.009980299 -0.36460614
-0.458912 -0.0991914 0.18067631 -0.00577752 -0.35183147 -0.22272305 -0.12252967 -0.013159765
0.087258086 -0.16188763 -0.027734837 -0.036557373 -0.011066466 0.13564058 0.07549307 0.14868361
-0.033678364 0.102078184 0.028790453 -0.14707254 -0.13139682 -0.05004297 0.06996694 0.19379762
-0.13040829 -0.015192902 -0.031250935 0.020424679 0.2232191 -0.12555817 -0.14973275 0.06414644
0.06873673 0.22735137 0.08361881 0.035155043 0.018638715 -0.020462679 0.060615808 -0.1478105
-0.25226417 -0.16031729 0.14579923 -0.10900915 -0.32712123 -0.28066134 -0.12056295 0.020709885
-0.30012536 0.037674773 0.1606651 0.059321404 -0.16639331 0.017442223 0.22789633 0.40098447
0.20995802 -0.009703496 0.16971405 0.36741644 0.19807349 0.31965885 0.22500964 0.22240011
-0.08797898 -0.10297998 -0.1767002 0.113739654 0.06307586 -0.19497193 -0.3459732 -0.052902788
0.17232183 -0.31124124 -0.14331965 0.027942238 0.07900345 -0.1679939 -0.16512954 0.15765911
0.17004327 0.13373865 -0.11826536 -0.1914839 -0.081026204 0.016653445 -0.054554127 -0.26559302
0.076937854 -0.077101685 -0.29979858 -0.22730146 0.12536824 0.17473732 -0.22308381 -0.20772144
0.02634497 0.030123765 -0.059837412 0.11193227 0.41869923 0.26049906 -0.07485724 -0.018456765
0.29904243 0.5067981 0.33538195 -0.06263657 -0.20987317 0.14720908 0.2429237 0.29713738
0.036521904 0.0071957954 -0.042542033 -0.092214204 -0.1621465 0.12275026 -0.37915087 -0.23140219
-0.24322854 -0.35544783 0.040606927 -0.45272788 -0.44214898 -0.24181004 -0.31126857 -0.11970331
-0.20716172 -0.1428187 -0.09641626 -0.35883895 0.004444872 -0.065598406 0.058343887 -0.07757141
-0.22350696 0.073356606 0.030844167 0.03355557 0.23413095 -0.049801044 0.022416214 0.09696573

conv1.bias f4 [6]
00000000: f0e3 863d 0564 aabd 94c9 b23e cdaf 2c3f
00000010: aaea 98bd dd04 86be
0.065864444 -0.083198585 0.34919417 0.6745575 -0.074666336 -0.26175585

conv2.weight f4 [16, 6, 5, 5]
00000000: 7482 123e 1bf8 3f3e 1854 743e 3ee2 2f3e
00000010: 2106 c03e 0fad 6f3e 06c8 483d 171e 2e3e
00000020: d5db 933e 0743 983d f4e6 ce3d f8ea 3b3e
00000030: f695 603e 4477 c0bc d79b 923e 45b3 4fbd
00000040: 3a9c 073d 5a93 bbbd 4d83 e33d 9384 3c3e
00000050: a942 17be bd2c cebd 7f90 49bd 8a82 0bbd
00000060: c2a4 19be 3154 17be af88 0abe 5bf1 2dbe
00000070: 0e7a eebd 338b 383e bece 61be 5d34 a1bd
00000080: 9947 b7bd 64c7 203d 94d8 443e 1b21 6bbe
00000090: ebd1 97bd 7e4f 093b 5ba8 393e e959 ba3d
000000a0: 0918 a6bd 8578 31bd b606 0e3e e402 d33d
000000b0: 3242 8f3d a5c3 86bd 5fc7 193e 26f6 a13d
000000c0: af26 b03d a6b1 173e b4fe 083c a316 8dbd
000000d0: 6283 53bc 145b a53d 73ac 1e3e 55af 2ebe
000000e0: 0946 173d 232d 0b3e ea85 71bc 64f8 d5bd
000000f0: 6da3 573e fc36 743e 3a3f a9be 8cc7 8dbd
00000100: 042e 1f3e 4462 653e 0692 8bbe f54f c0bc
00000110: d42c 8a3e 0593 bb3d e2e1 57be 3329 093d
00000120: 603c b33e 19cc da3d f443 493d 9bd8 a6be
00000130: 8359 93be 7883 25be 1b68 03be e090 053c
00000140: 5863 46be b567 15be 01df 1dbd f679 83bc
00000150: c739 1e3e 61ab 73be aabd b8bc dc48 a23d
00000160: 4629 683d d433 6a3e acd8 80be ae4b 0f3d
00000170: a243 df3d 383e 4e3e 1aa9 9f3e 16b9 d6be
00000180: 436a c2bd 3ca3 e23d 9554 593e 3174 c33e
00000190: 3190 76bd eef6 963d 1cdc ee3d c7f6 79bd
000001a0: 01d5 83be 0e7f c83d 7ec5 8b3d 519d cfbd
000001b0: 8507 77bd c5f0 01be 2040 f93c a2e4 2abe
000001c0: e7d0 50bd 633b 13be cfa7 dbbd 5b51 f7bd
000001d0: 0803 13bd 154b 19bd b901 68be 98ee bcbc
000001e0: 3120 babc 1271 e23b ea6e 80be 110d fe3c
000001f0: bdbc 493d 21d6 1bbd be57 8d3d aca9 83bc
00000200: 5c98 17bd bfd6 1f3e c550 c43d 6b77 803d
00000210: b08e 3fbd 01a2 d63d f676 c4bd dcfc acbd
00000220: c577 333e 07e0 063e 226c b73c 48ff 47be
00000230: c9fc 343e fe81 9b3e b522 b33d 418c cfbc
00000240: 81c0 88be 1c36 813e 63cf 783d 8470 1ebd
00000250: 7d0b f5bd 5a2e a1bd 39ee 5f3d a4ba 9dbe
00000260: 9582 7cbe c737 7bbe d93a 0ebe 8bfc 6d3c
00000270: 6f67 eabd 8029 c8bd 80c6 90be c88c 90be
00000280: 8164 033e 902b 48bd 045d dfbc 7781 35be
00000290: 3ec0 82be 6f18 073e 5d64 2e3e 2c1d 85bd
000002a0: 0d4d 563d 0708 edbd fe18 353d 11de 563d
000002b0: 13bc 65bd a9e2 7dbd 519d d0bb f34c b73d
000002c0: ce8f 3fbc 0f64 e43c 4065 1c3e 0601 f53d
000002d0: f5b3 a43d a106 ce3d 2b99 f43c 3b56 233e
000002e0: 4928 123e 41a2 d6bc 654e 85bc bf13 803b
000002f0: 0fea 433d 7ecc 7d3c 6f5f b53d d722 77bc
00000300: 2317 a53d f9b5 5d3b 68a7 193d 00b8 debd
00000310: 5321 73bc 26a9 0ebe 5fdf 1fbe 8c0f 95bb
00000320: 2bff 1c3e fc7a 8b3d e75a a43d 84c4 633e
00000330: 26db 9a3d cacc 0a3d c734 0f3e a8fc be3d
00000340: 505b c83d 7e1a 383d 9dae 12be d8e9 4fbd
00000350: 15f5 0abe a23c dbbc f5dc 8dbd b819 5fbe
00000360: 2c53 16be 8be1 3cbe 38ac 22be 4ad4 52be
00000370: cf89 9a3c 6dde 4fbd 2b22 16bd 6c7b e0bd
00000380: 9f97 13be 75b2 233d 2f38 093e 6d71 febc
00000390: 5bb3 90bd 9682 27be 535e 643d ecb9 cc3d
000003a0: 6048 8b3c 2731 4cba 57db 723d a664 7d3d
000003b0: 2f3a c73c 9680 5a3d a70a 073a 9f38 9e3d
000003c0: 806d 89bd ce9a 5c3d 9d99 833d 48d8 cc3c
000003d0: 088b 903c ab90 2dbe 2b5a 23be c1a8 52be
000003e0: 4cc6 22be bb62 7bbe 4fe9 aabe 06e3 43be
000003f0: 26e0 19be 328a a1bd 9bbb e53d cec4 95be
0.14307576 0.18746988 0.23860204 0.17176148 0.37504676 0.2340586 0.049018882 0.17003666
0.28878656 0.074346595 0.101026446 0.18351352 0.21932206 -0.02349437 0.2863452 -0.050708074
0.033107974 -0.091589645 0.11109028 0.18409948 -0.14771523 -0.10067127 -0.049210068 -0.03406004
-0.15004256 -0.1477821 -0.13528703 -0.16986601 -0.11644374 0.1802185 -0.22051522 -0.07871316
-0.08949203 0.039252654 0.19223243 -0.22961847 -0.074130856 0.0020951922 0.18130629 0.0909918
-0.08110053 -0.043327827 0.13869748 0.10303286 0.06995048 -0.06580285 0.1501746 0.07908277
0.08601128 0.14813861 0.008361507 -0.06889083 -0.012909742 0.080740124 0.15495472 -0.17059071
0.036932025 0.13591437 -0.0147414 -0.104477674 0.21058436 0.238491 -0.3305605 -0.06922826
0.15544897 0.22400767 -0.27259845 -0.023475626 0.26987326 0.09158901 -0.21082261 0.033486556
0.35007 0.1068346 0.04913707 -0.32587132 -0.2877923 -0.16163433 -0.12832682 0.008152217
-0.19373834 -0.14590342 -0.03854275 -0.016049366 0.15451728 -0.23795845 -0.022551376 0.07924053
0.056679986 0.22871333 -0.25165308 0.034984283 0.10901572 0.20140922 0.31183702 -0.41938084
-0.09492924 0.11066291 0.21223672 0.38174585 -0.060196105 0.07371317 0.11663076 -0.06102636
-0.25748447 0.09789859 0.06824778 -0.101374276 -0.060309906 -0.12689503 0.030426085 -0.16688779
-0.050980475 -0.14378123 -0.10725366 -0.12076064 -0.035891563 -0.03742512 -0.22656907 -0.02306299
-0.022720428 0.0069104517 -0.2508462 0.03101209 0.04925226 -0.038046006 0.06901501 -0.016072117
-0.037010536 0.15609263 0.09585718 0.06272777 -0.046766937 0.104801185 -0.095930025 -0.084466666
0.17526157 0.13171397 0.022390429 -0.19530976 0.17674555 0.30372614 0.08746854 -0.025335433
-0.2670937 0.25236595 0.060744654 -0.038681522 -0.11965082 -0.07870169 0.054670546 -0.30806458
-0.24659188 -0.24532996 -0.13889636 0.014525543 -0.1144551 -0.097735405 -0.28276443 -0.28232408
0.12831308 -0.04886967 -0.027266033 -0.17725168 -0.25537294 0.13192914 0.17030473 -0.06499705
0.052319575 -0.11573797 0.044213288 0.052457873 -0.056087565 -0.061983738 -0.00636641 0.08950224
-0.011692001 0.027879743 0.15272999 0.11963086 0.080421366 0.10059858 0.029858192 0.15950863
0.1427318 -0.026200416 -0.016272733 0.003908604 0.047830638 0.015490649 0.08856093 -0.01508399
0.080610536 0.0033830388 0.037513167 -0.10874939 -0.014839488 -0.13931713 -0.15612553 -0.0045489725
0.15331714 0.06810567 0.08025151 0.22242934 0.075613305 0.03388671 0.13984977 0.09325534
0.097830415 0.04494714 -0.14324422 -0.05076012 -0.13570054 -0.02676231 -0.0692691 -0.21787155
-0.14680165 -0.18445413 -0.15886009 -0.20588794 0.01886454 -0.05074923 -0.03665368 -0.10961041
-0.14413308 0.03996511 0.13400339 -0.031059945 -0.07065459 -0.16358408 0.055754017 0.09996399
0.017002285 -0.00077893067 0.05929121 0.061863564 0.024319736 0.053345285 0.00051514286 0.07725643
-0.067103386 0.05385857 0.06425784 0.025005475 0.01764442 -0.16949718 -0.15952365 -0.20572187
-0.15895957 -0.24549381 -0.33381125 -0.19129571 -0.15026912 -0.07887687 0.112174235 -0.29251713

conv2.bias f4 [16]
00000000: d97a 0bbf f128 5e3e ed3f 8e3f d474 703e
00000010: 787b 953e 24c9 c0bc ae0a 28bf 4235 003f
00000020: 4651 1a3e 5d6f afbe 9655 15bd 9da1 643e
00000030: c341 a7bf e083 c23d 6183 be3d 7761 cfbe
-0.54484326 0.21695305 1.1113259 0.23482066 0.29195762 -0.023533411 -0.65641296 0.50081265
0.15070066 -0.3426465 -0.036458574 0.22327276 -1.3066944 0.094978094 0.09302402 -0.40504047

fc1.weight f4 [120, 400]
00000000: 4c74 acbd ad16 2b3c 7dc0 74bc 2de7 0dbd
00000010: 5b87 cebd c425 0b3c fa62 eb3d e90c c63c
00000020: dcf2 f33c f775 803d e437 c2bc 09f9 bb3c
00000030: e858 f8bb 97b0 e6bc 888b b43c 695b f5bd
00000040: 5e8c 6dbd a258 03be 7ea2 74bd 0975 ea3c
00000050: 1262 bebd 77af 2fbd 895b 62bd 32e8 28bd
00000060: f987 3e3c 9e3f 12bd 03ef aabc 8462 0cbd
00000070: e9da 87bd a353 c7bd e3bb 193e 934a 063d
00000080: 8f03 a0bc 0d7b 4f3d 3393 1a3d 4bb7 de3d
00000090: f024 793d a88e fbbc 37e8 21bb 0d54 383d
000000a0: 72f2 30bd b62b 83bb 19d4 43ba c6f7 44bd
000000b0: 31ae dbbb baaf 55bc 56e3 203d c102 c03d
000000c0: c95f 4f3d 5ee7 10bd 13b9 81bd 085a 343d
000000d0: f599 1dbd bbae 50bd 596f 52bd 6b00 7dbd
000000e0: b39b 67bd 8375 abbb 0bd0 8ebd f826 893c
000000f0: 1a5f 94bd 736f 10bd aa9c 6ebd e051 b6bd
00000100: d0d4 7abc c8ba 0cbe 7e8d c0bd 267f e5bd
00000110: 579d d8bd 2e74 02bd 5a65 2dbe f745 0abe
00000120: 7635 9dbd 38d2 39be 0856 2abe ecab 1a3d
00000130: ce00 603c 8f78 703c 327b 7abc d294 943c
00000140: e048 b33d b609 e33c f0b7 073d 2d91 3f3c
00000150: 8abb 4e3d b32f 4f3d 46ec 463d 7dab 5bbb
00000160: 9477 43bd 648f 56bd e712 18bd 7b16 653d
00000170: 0351 aabc 054f f0bc c5b6 b33c 4e65 09bc
00000180: ca33 073d 016b c83c 0dcf be3c 8e8f a33d
00000190: ac52 82bd b755 ae3c d8bc c73d 8570 5d3c
000001a0: 7201 eebb dddf 1d3d cba8 c03d 8655 933d
000001b0: c987 993d eb13 143d 2ff6 78bd 448b 2abc
000001c0: 8144 9f3d 0469 723d c30b 423d bca3 0abd
000001d0: d082 73bd 44a2 69bc cf6e 18bc d38f db3c
000001e0: 0905 b9bd 0fec 10be db76 1ebd 9cd0 a8bd
000001f0: 0d40 cd3c 6a3d 423d 7d5c a6bc f0e2 5f3d
00000200: 2b71 3a3d b291 ab3c 483d 22bd e7cf d73b
00000210: 49cf 153d 0daa d13b ae74 1fbd bc3b 54bd
00000220: aa22 cbbc 9b4b 313d 692d 8bbb 3c1e c53c
00000230: 8261 92bc d360 a6bc 5f78 c0bc e141 e7bc
00000240: 19a4 c9bc 2892 25bd 6957 2dbd 6a75 233d
00000250: cc40 e3bc ce7f ec3c 1ee0 873d cb00 a13b
00000260: e6f0 5b3d 5985 ae3d b508 2bbd b074 3aba
00000270: 479f 13bd ab2f c93b f653 04bd 371a 99bc
00000280: fca0 a8bd 7a63 a2bd 9c9c bcbd 7c4b bbbd
00000290: d3e5 97bd 6ca7 3bbd fe5f 52be 2a06 03be
000002a0: 48d5 42bd 810b f3bd d0e6 343c 5b03 b3bc
000002b0: afc5 9abd a064 6dbd 4320 a6bd 3faf 943d
000002c0: 0cd0 e43d 2885 1e3d 2df9 43bc 7089 f03c
000002d0: 7f6b 2b3d d3c2 09bd ab3b 043d 8379 083d
000002e0: d095 ad3b fec7 7f3d d3fa dc3c 5960 833d
000002f0: cc05 02bd f30a c03c 1854 98bc 703b 773c
00000300: 059d 5ebc 1a9d 613d 965c dd3b 5d90 023d
00000310: d276 be3d 1816 d03d 3310 e23d 250b 3b3c
00000320: b551 9b3c 4d69 103c 3520 963d b319 763d
00000330: d817 4abd a6cf 78bd 4424 c8bc 8549 243d
00000340: 3d5d 313d 2653 66bd 3a4c 3cbd 5f10 c23d
00000350: 1fd8 a5bb 64c9 e93d 2712 3f3d a108 7bbc
00000360: 9d22 06bd ca26 1b3c b31e 5d3c 878b abbb
00000370: 99f0 5f3d 7d64 abbb 2f24 81bc 1374 093d
00000380: cb86 833d f8a0 d3bc e61f 8c3d dbb3 f63a
00000390: e4a6 ff3b 0305 7dbd 201e 26be ed66 563d
000003a0: 9fdf e0bc 7657 95bd d992 033d 32c6 21be
000003b0: dd08 1abd 75a1 0cbd f282 93bd dd7d 0b3d
000003c0: c804 b1bd 4dfc 273c 64fe e4bd 095f 85bc
000003d0: 5e8a 113e 109e 21bc 2872 c9bb 38a9 87bd
000003e0: f9ba 49bd 004f e3bc 07d0 4d3c 4096 693d
000003f0: bb6a 843d 39c5 e2bc 9410 2e3c acf4 3bbc
-0.08420619 0.010442418 -0.014938471 -0.034644295 -0.10084411 0.008492891 0.11493488 0.024176078
0.02977889 0.062725 -0.023708291 0.022945898 -0.007578958 -0.028160376 0.02203919 -0.11980326
-0.057995193 -0.1282678 -0.059725277 0.02862026 -0.09296049 -0.042891946 -0.055263076 -0.041237064
0.011629098 -0.0357052 -0.020865923 -0.03427364 -0.06633551 -0.09732749 0.1501308 0.032785963
-0.019532947 0.05065446 0.037738036 0.10874804 0.060826242 -0.030707672 -0.0024705061 0.045002032
-0.043199964 -0.0040030135 -0.00074702647 -0.048087858 -0.006704115 -0.013042385 0.039279304 0.09375525
0.050628457 -0.0353769 -0.06334128 0.044031173 -0.038476903 -0.050947886 -0.05137572 -0.061767977
-0.05654497 -0.0052325143 -0.06973275 0.016742215 -0.07244702 -0.035262536 -0.058254875 -0.08902335
-0.0153095275 -0.13743126 -0.094019875 -0.11205892 -0.10576885 -0.03184908 -0.16933194 -0.13503252
-0.076762125 -0.18146598 -0.16634381 0.037761614 0.013672067 0.014677181 -0.015288161 0.01813737
0.08754134 0.027714591 0.0331344 0.011692327 0.05047182 0.0505826 0.04856517 -0.0033518963
-0.04772146 -0.05238284 -0.0371274 0.055929642 -0.020790583 -0.029334554 0.021937737 -0.008385969
0.033008374 0.024465086 0.023292089 0.07986365 -0.06363425 0.021281106 0.09752816 0.013515596
-0.007263356 0.03854357 0.09407195 0.07194047 0.07496602 0.036151808 -0.060781654 -0.01040918
0.07776738 0.059182182 0.047374498 -0.033847556 -0.059450924 -0.014259879 -0.009303763 0.02680198
-0.090341635 -0.14152549 -0.03868757 -0.08242914 0.025054956 0.04742185 -0.020307774 0.054659784
0.04551808 0.020943496 -0.039609224 0.006586063 0.036574636 0.0063984455 -0.038929634 -0.05181478
-0.024796803 0.043284994 -0.0042473567 0.024062268 -0.017868761 -0.020309841 -0.023494897 -0.028229656
-0.02461438 -0.04042259 -0.04231969 0.039906897 -0.027740858 0.028869536 0.06634544 0.0049134246
0.053696536 0.08521528 -0.04175635 -0.00071127247 -0.03604057 0.0061397157 -0.032306634 -0.018689258
-0.0823383 -0.0792913 -0.09209558 -0.09145257 -0.07416882 -0.045813963 -0.2054443 -0.1279532
-0.047566682 -0.118674286 0.011041358 -0.021852186 -0.075572364 -0.05795729 -0.08111622 0.07259988
0.11172494 0.038701206 -0.011961264 0.02936241 0.041850563 -0.033633064 0.032283466 0.033319008
0.0052974 0.062446587 0.026975071 0.06414861 -0.03174381 0.023442721 -0.018594787 0.015089855
-0.013587241 0.055081464 0.006755422 0.031875957 0.09300007 0.10160464 0.11038246 0.011416231
0.01895986 0.008814168 0.07330362 0.060083102 -0.049339145 -0.060744904 -0.024431355 0.040109176
0.04330181 -0.05623164 -0.045971133 0.09475779 -0.005061164 0.11415365 0.04664817 -0.0153218815
-0.032747854 0.009469697 0.013496089 -0.005235139 0.05467281 -0.005230485 -0.015764324 0.033557963
0.06422194 -0.025833592 0.06842022 0.0018821912 0.0078018773 -0.061772358 -0.1622243 0.05234425
-0.02745038 -0.072920725 0.032122467 -0.15798262 -0.03760611 -0.034333665 -0.0720271 0.03405558
-0.0864349 0.010253024 -0.11181334 -0.016280668 0.14212939 -0.009864345 -0.0061476417 -0.06624073
-0.049250577 -0.027747631 0.012561805 0.057028055 0.0646567 -0.027681934 0.01062407 -0.011471909

fc1.bias f4 [120]
00000000: 238e c13d 8c41 80bc 7690 fdbb 85d0 e7bc
00000010: fe97 903d c28e 9c3c c3b4 d1bd 8f53 a4be
00000020: 4102 4a3e 0e1b e93d 252d dbbc 9495 263e
00000030: f1c0 ed3d 54e8 0c3e 8951 173e 42e9 073b
00000040: bea2 bbbd 286b dc3d 96d8 a13e 99a8 4bbd
00000050: fb8a c0bc c50b 0cbd ef43 c93c 704d 2b3e
00000060: e803 9c3d 4f2f b4ba eb82 5b3e 37ce 98bd
00000070: aced 9ebd 37bc e5bd b3eb 53bd d226 bebd
00000080: 2eb1 b33c ffa3 403c 3338 e9bd 7e7a a0bd
00000090: 35d1 0ebd 038d 043d 345f ed3d 3d7e 9a3d
000000a0: ba2b 363e 33f9 5d3e 58d4 a63d 9aca 3cbe
000000b0: 266d 883e 91ce 5c3e 634d 2dbe 0474 84bd
000000c0: abd3 7bbd 6398 3b3e 9435 693b 1534 fa3d
000000d0: 2b66 d93b 44ae 703d 2eea f63c 94ab 883c
000000e0: 5c9f a63d 9c79 73bd a3e4 f1bd 5bb3 b33c
000000f0: 06fe 3d3c 191c 0a3d 81c4 fbba 9166 8abb
00000100: e9c8 05bd 4e80 653d 3cb5 44be 609a 143e
00000110: 697d 203e 000a 7b3e 5c36 353e 8be6 023e
00000120: 5a20 e73c 731e 91bd 18c5 2a3e 5aa9 103c
00000130: bb58 ba3d 7e50 9d3d 107b 9f3d f7e1 613e
00000140: 141c 813c 9201 903d 6414 fa3d f5fb dd3d
00000150: 6ade 8abc cdd0 a53d 0fb4 1d3d 69f3 5f3d
00000160: 7505 26be 7c48 b839 d3bf b2bd 2ffd 46bc
00000170: 42a7 a4bc eb34 943d f5c1 18bc 6501 8abb
00000180: 7a6f a33d 7d3f 80be e9bd 1abd 40a2 80be
00000190: 4f4a e0bc 5243 a93d 5fb9 04be ebb6 2b3d
000001a0: d50c e83c bcf2 b2bc db96 92bd 805c 0f3e
000001b0: 3a1f 0e3d e7c6 00bd d609 00be 5d17 3abd
000001c0: 0a90 853e 45e6 153d 2345 7b3d e406 023e
000001d0: 7b1a 903e a02f 3bbd 9fd0 423d 4a58 393e
0.094509386 -0.015656255 -0.0077381684 -0.028297672 0.0706024 0.019111041 -0.10239556 -0.32095
0.19727422 0.113821134 -0.026754925 0.16267997 0.11609066 0.13760501 0.14777197 0.0020738398
-0.091619 0.10762626 0.31610554 -0.049721334 -0.023503771 -0.03419091 0.024568526 0.16728759
0.076179326 -0.0013747009 0.2143666 -0.07461207 -0.07760176 -0.1121754 -0.051738452 -0.09284748
0.021935072 0.01175785 -0.11387672 -0.078358635 -0.034867484 0.03236104 0.11590424 0.07543609
0.17790118 0.21677093 0.0814597 -0.18436661 0.26645774 0.21563174 -0.16924052 -0.06467441
-0.06148116 0.1831985 0.0035584914 0.12216965 0.006634494 0.058759943 0.030140962 0.016683377
0.08135864 -0.059442148 -0.11811187 0.02193611 0.011596208 0.033718202 -0.0019208343 -0.0042236526
-0.032662306 0.056030564 -0.1920976 0.14512014 0.1567284 0.24515533 0.17696518 0.12783258
0.028213669 -0.07085886 0.16676748 0.008829439 0.09098955 0.07681368 0.07787144 0.22058855
0.015760459 0.070315495 0.122109205 0.108390726 -0.016951758 0.08096466 0.038501795 0.054675493
-0.16213019 0.0003514922 -0.08727994 -0.012145325 -0.020099286 0.07236656 -0.009323587 -0.004211592
0.07980247 -0.25048438 -0.03777877 -0.25123787 -0.027379183 0.082647935 -0.12961338 0.04192249
0.028326431 -0.02184426 -0.0715768 0.1400013 0.03469775 -0.031439688 -0.12503752 -0.045432437
0.26086456 0.036596555 0.06134523 0.12697941 0.28145203 -0.045699716 0.047562238 0.18100086

fc2.weight f4 [84, 120]
00000000: 56fb 833d 87a3 00bc 6afe e9bd ae67 6bbd
00000010: 7b2b d43d 5132 823c db73 ebbd 97ea ecbd
00000020: 6452 353d 50ca 2d3d d921 d9bb f255 4a3d
00000030: 0455 5abc 8311 d9bd 63ef 4c3b fadd c7bd
00000040: 5020 c8bd b47a c73d af50 443c cc49 4e3d
00000050: 1579 c4bd e542 2dbd 84dc 363d 8e17 0a3e
00000060: 4200 b63c 815c eebc a637 afbd c070 763d
00000070: 8938 b83d 53ae 093e 7cfb 46bd de9a 8abd
00000080: 4312 0f3d a9b2 3c3e 2099 643d 4f73 263d
00000090: 8d6e 5e3c 21ec 88bd 979b b23d 7668 1f3e
000000a0: 4322 8dbd 6bc5 abbd b32a 34bc 77e3 7a3c
000000b0: 193b c03d 84be 10bc 030a c4bd 72bd 02be
000000c0: 9ae2 7bbd 5d88 c3bc 7eab bfbd 8517 d13d
000000d0: 53da 71bd 5d0b e63c b98d 633d 6106 5cbd
000000e0: 97e9 dabd 1f42 b13d a11b 86bc f03f 27bc
000000f0: a7ed 873d 46dc a7bd 9c76 283d 7648 9f3d
00000100: dc7d 62bd 5576 b33d c717 2a3d 55fb 58bd
00000110: 3447 bebc 1442 34be cffc 0bbd 3fe8 62bc
00000120: b61d afbb d4a7 0bbd f197 243d 856e ec3d
00000130: 70d4 89bd 6be9 f2bd d20d 963c e49a 8dbd
00000140: 43dc d03b 9b89 d23d 1b19 7c3e 5874 cbbd
00000150: 3a14 24bc ce5d a13d 2a5f 1bbe 8efc 0cbe
00000160: 914c cdbd 9d87 3ebd eff1 b6bd 48ce 8f3d
00000170: 3669 0c3e 4fe2 a4bc 290a 983d 8595 f83d
00000180: 0ccb b63d ff74 073d 830f 15be 55a9 65bc
00000190: cfb9 5d3d 5ec1 64bd 06c2 47bd 8cbd 163e
000001a0: 27da 853a fc9a 9dbb 4f47 aa3d b945 453d
000001b0: 545e 8b3d 41ea 413c 59bf 6ebd 840a bdbd
000001c0: b821 50bc da34 923c 5558 093d d5d9 a13d
000001d0: 7ef4 553d 1c52 50be d0cf 7bbd e53c 093e
000001e0: 5441 eabd c443 8bbd eb04 fabc 1059 bf3c
000001f0: 97f4 75bc 1532 203d d29b 48bc 0d7c 0cbd
00000200: 09ed 643d eafd 893d a0e0 063d ca83 b83c
00000210: 8ede 9b3d 84ad 73bd dc9f d0bb 93f9 c63d
00000220: 1fcf 02be 05e1 0abd e320 cd3a 3879 31be
00000230: 9aee 50bc 63c0 293d d145 3abd dc05 e1bd
00000240: c570 033d d718 8b3d 23cb d5bb a883 973c
00000250: 8292 3fbb 9fed c9bc 04df 833d 90c5 963d
00000260: 65f9 e5bc c266 e7bb b5dd 053d 4312 2b3d
00000270: 781f 3f3d dc51 46bd d954 023e 323b 953d
00000280: 1260 d33c 2a8d 3a3c 94a4 473d 55a1 2a3e
00000290: 4412 993d de03 923d e73d a83d 85ca 553c
000002a0: 017c debd a4b2 babc 2f1d 26bd cfc1 233d
000002b0: 6af7 1d3d 7501 423d 280c a0bd 949e 0ebc
000002c0: 41a3 813d 675d c43c 196c bcbb 074a 843d
000002d0: 8979 d1bd 538d 43bd eb4e 8e3c 972d 08bd
000002e0: e6b5 753d 3adb 9b3b 676e 1a3e d97b 15be
000002f0: 91d8 3fbd e714 3d3e 4f6c d13d 4a8b 5d3d
00000300: 2691 efbc 3cc5 f33d 6af4 c1bc 4bf3 96bd
00000310: 1d0a 5e3c e3dc ba3c 6c20 b03c 0e0b 64bd
00000320: 1516 353a 98fc 1bbd 9c26 24be 418d 3bbe
00000330: f904 84bd 55cb 933d 90d3 b83c c5ec 3b3d
00000340: 6bb4 c83d a6e5 30bd 6ae1 fdbd 2dad f43c
00000350: d0ff adbd f6bb 97bd 75b7 cebd 9f91 ae3c
00000360: de76 6fba b392 e23c f957 9dbd 1c01 a5bd
00000370: 284e 1ebe 6436 093e 5ede b93d 2f0b 28bd
00000380: 1f01 00bc bd26 b73d 402a 0bbc 29d3 aabc
00000390: 5ba3 b5bd 50c2 30bd a01c bfbd 97cb 3d3d
000003a0: ac0c 14bb caa0 c2bb 61d7 8ebc c26f df3d
000003b0: 5594 3fbd a037 c6bd f841 71bc 45db dc3d
000003c0: b02c b23d 0baa 24bc c256 56bd c90d 83bd
000003d0: b83f ad3d b750 54bd 9925 513d 6bf6 8abc
000003e0: a752 85bd ffe1 19bd 707d 5fbb 8d7d debd
000003f0: 4e34 6d3d 037b cdbd 776a 733c ac48 11bc
0.06444423 -0.007851488 -0.11425479 -0.057471924 0.10359856 0.015893133 -0.11496707 -0.11568182
0.044268027 0.04242927 -0.0066263494 0.04939837 -0.013325933 -0.10599043 0.0031270615 -0.097591355
-0.09771788 0.09740201 0.011982127 0.050363347 -0.09593407 -0.042300124 0.044643894 0.13485548
0.02221692 -0.029096844 -0.08555536 0.06016612 0.08995158 0.13445406 -0.048579678 -0.0676782
0.034929525 0.18427528 0.055810094 0.04063731 0.013576162 -0.06685663 0.08721083 0.15567192
-0.068913005 -0.08387264 -0.010996508 0.015313021 0.09386272 -0.008834485 -0.09572222 -0.1276758
-0.0614954 -0.023868734 -0.093588814 0.10209564 -0.0590461 0.02808159 0.05555508 -0.05371702
-0.10689085 0.0865519 -0.016370596 -0.010208115 0.066371255 -0.08196311 0.04112874 0.07777493
-0.05529581 0.087628044 0.041526582 -0.052974064 -0.023227312 -0.17603332 -0.034176644 -0.013849317
-0.005344118 -0.0340956 0.040183965 0.115445174 -0.06729972 -0.11860927 0.018317137 -0.06914309
0.0063739135 0.102801524 0.24618952 -0.099343 -0.010014588 0.0787922 -0.15173021 -0.13768217
-0.100243695 -0.04651605 -0.08932864 0.07021767 0.1371201 -0.020127444 0.07423813 0.121378936
0.08925447 0.03307056 -0.14556699 -0.014017423 0.05413228 -0.05584847 -0.04876902 0.14720744
0.0010212109 -0.0048097353 0.08314382 0.048162196 0.06805101 0.011835636 -0.058287952 -0.09230521
-0.012703352 0.017847467 0.033531506 0.07902876 0.05223512 -0.20343822 -0.061477482 0.13402136
-0.114382416 -0.06800035 -0.030519923 0.023357898 -0.015011928 0.039110262 -0.012244182 -0.03429799
0.055890117 0.067378834 0.032929063 0.02252378 0.07610808 -0.05949165 -0.006366713 0.09715571
-0.12774323 -0.033906 0.001565006 -0.17331398 -0.0127522 0.04144324 -0.04547674 -0.10987446
0.032089967 0.06791847 -0.00652446 0.018495396 -0.0029231613 -0.02464944 0.06439021 0.07361901
-0.028073022 -0.00706181 0.03268214 0.041765463 0.04666087 -0.04841791 0.1272768 0.07286681
0.025802646 0.011386195 0.04874094 0.16663106 0.07474187 0.07129644 0.08214932 0.013048773
-0.108634956 -0.02279026 -0.040555175 0.039979752 0.03856603 0.04736467 -0.078148186 -0.0087048
0.06329966 0.023970319 -0.005750191 0.06459432 -0.10228259 -0.0477422 0.017371615 -0.033246603
0.059987925 0.0047563585 0.15081178 -0.14598025 -0.046837393 0.18465005 0.10225736 0.054087915
-0.029244017 0.11902854 -0.023676116 -0.07370623 0.013552216 0.022810405 0.021499835 -0.055674605
0.00069078925 -0.03808269 -0.16030353 -0.18315603 -0.06446261 0.07216517 0.022561818 0.045880098
0.09800037 -0.04318776 -0.1239651 0.029867733 -0.08496058 -0.074088976 -0.100935854 0.021309672
-0.0009134839 0.027657842 -0.07682795 -0.08056852 -0.15459502 0.13399655 0.09075616 -0.04102629
-0.007812767 0.089429356 -0.00849396 -0.020852642 -0.08869048 -0.04315406 -0.09331632 0.046336737
-0.002259056 -0.0059395777 -0.017436685 0.10909988 -0.04677232 -0.096785784 -0.014725201 0.1078401
0.0869993 -0.010050307 -0.052328832 -0.06399114 0.08459419 -0.05183479 0.051061247 -0.016963204
-0.06509905 -0.037569042 -0.0034101866 -0.10863791 0.05791121 -0.10033228 0.014856926 -0.008867424

fc2.bias f4 [84]
00000000: 4488 c9bd e2d6 c1bc 05a5 f93e c7ea 27be
00000010: e53b b5bd 6e65 8fbc 9f51 88bc 113a d6bd
00000020: 1426 fb3d f9c4 3f3e b29c 50bd 74e2 26be
00000030: e48d 013f 8a4e 5abe c77d 683e dcad 1a3e
00000040: b086 083e d8ef f3bc af1a c4bd 6107 a0bd
00000050: e643 4b3a 03d5 fbbd e193 dbbd cb62 3f3e
00000060: b468 cabd 4b83 f0bc 34f8 403e 046b 08bc
00000070: f7a4 8c3e e750 aabb bcfc 213e 9f0d 6d3d
00000080: 70dc 0c3e 99dc 9b3d 08f2 5a3d 7666 a6bd
00000090: 1d60 253e 12c9 d83c 6484 073e f55b 853d
000000a0: 80aa 0b3f 3f5c b8bd 5316 b7bd ecbb a03e
000000b0: 9c1c a83e 9c7b 28be 1f6c e3bd 6626 6abd
000000c0: f905 963e fe31 903c 4b38 ca3d e5f6 633e
000000d0: 0e55 12be c294 e0bd 7fc6 07be d64a 653e
000000e0: 298d 673e 2a2a 903e 3c0d 4abd 0349 833e
000000f0: 5cbc efbc 5c36 4f3e 03dd f8bc 0040 6fbd
00000100: 20d1 9c3d 4fe6 973d cabe 7e3e c6d9 96bd
00000110: 0f78 dc3d 3ecc a8bd 2b7b 98bb b63a f4bd
00000120: 58ff 8f3d bd6b 953d 58d1 913e abe3 a53d
00000130: 1797 a2bc 5791 ba3e 60f3 54be f9d1 8c3d
00000140: 2e7e 15bd 28f8 95be d915 403d 8cda 273e
-0.09840444 -0.023662034 0.48758712 -0.16398154 -0.088493146 -0.01750442 -0.016640482 -0.10460294
0.12263122 0.18727483 -0.050930686 -0.16297323 0.5060713 -0.21319023 0.2270423 0.15105385
0.13332629 -0.029777452 -0.09575402 -0.078139074 0.0007753953 -0.12296488 -0.10721565 0.1869003
-0.09883252 -0.02935948 0.18844682 -0.008326296 0.27469608 -0.0051976326 0.15819067 0.05787432
0.13755965 0.07610435 0.053453475 -0.081250116 0.16149946 0.026463065 0.13234097 0.0651168
0.5455704 -0.090019695 -0.08939805 0.31393373 0.32834327 -0.16453403 -0.11104607 -0.057165526
0.29301432 0.017601963 0.09874018 0.22262152 -0.14290258 -0.10965873 -0.13259314 0.22391829
0.22612442 0.2815717 -0.049329028 0.2564164 -0.029264621 0.2023558 -0.030378824 -0.058410645
0.07657075 0.07416975 0.24877468 -0.07365756 0.10765087 -0.08242081 -0.0046533546 -0.11925261
0.07031125 0.0729594 0.2848003 0.08100065 -0.019847436 0.3643901 -0.20795965 0.068759866
-0.036497287 -0.2929089 0.046895836 0.16391963

fc3.weight f4 [10, 84]
00000000: df0f 843e 0069 c2bd 3b07 973e cd6c 823e
00000010: 5c3c 703e 33b1 3a3e cdc9 d03d 92c0 58bc
00000020: 59bc 21be f262 003e e600 663d a410 26be
00000030: e073 553e 1375 013d f841 37bd 8818 cbbe
00000040: 532a 83be ebf0 2c3e 267e e33d e7d4 a4bd
00000050: 500c b23d edfc 47bd 935a 103e 31a1 a8bc
00000060: 79c0 7e3e a32b ad3d ca0f 13be 75dd 9fbe
00000070: 680a af3e afc9 cc3b 99aa 1a3d 1a46 44bd
00000080: 9934 8bbc 09bf 90be 9fca 3cbe 33a7 9c3d
00000090: e842 10be 63f9 a03d cf48 383e 5781 7abd
000000a0: 9c2d c1bd 61a3 833c 0095 7b3d 9a18 1d3e
000000b0: 9fb0 1fbe c98b 9d3e 1522 783e b829 173e
000000c0: a7c8 23be 6d0d 183e 9caf 683e 254c 153e
000000d0: f7dc a83d 97b3 f33d 5e21 c3bd b64b 56be
000000e0: a048 a53d b3e7 9abe 2ccc 0f3e aa4c 8dbe
000000f0: 3d79 2fbd 2359 b03e 2504 2a3e 2508 d83d
00000100: c360 c4bd df03 38bd 3894 95be 107c 783e
00000110: 6d34 e63d adc5 113e 71cf 24be 5189 30be
00000120: 0dcd 03bd 9d68 56bd e5a8 5fbe 836c 0d3e
00000130: c4b3 30be ff5a bebd 8c76 023e 1724 823e
00000140: e67a d13d 917a e53d 9d33 9a3e 4485 72be
00000150: d78d 58bd adca 313d 408e 8ebe 6d2a a83d
00000160: c9d0 663d f043 933e c619 95bc b2aa cb3d
00000170: 1e1c 1abe 2f27 083e a404 0bbe 83d3 813e
00000180: 0aa7 85bc fa2c 323e 7b1d 6ebe 3a33 053e
00000190: f9ef b13d 02a5 00be bfd6 753b 230b 1e3e
000001a0: f954 7f3e 079c 573d 9e3f b6bb 6b00 e0bd
000001b0: 8442 67bd c2c4 a1bc 16a4 9cbd 630f 203e
000001c0: 9360 1e3e ea29 17be a936 e3bd aba1 02be
000001d0: 6117 8e3d aeae 81bd 0d3d 1d3d dd8b b23c
000001e0: f256 d33c 5862 f83d fc17 9ebd 2ae5 c1bd
000001f0: 187a 58be 6225 33bd bf64 21bd 99a3 9bbe
00000200: 2efb 13be 2fdb 40bd 0b7b 993d 0673 413d
00000210: 5faf a0be 7bc6 23be 5424 debd 2970 ae3e
00000220: fa15 743d 0620 6ebd 8865 79bd 7e9d 0abf
00000230: 6f3d 8cbd 4ee1 b63d 08eb 29bd 3ad0 04be
00000240: 00da 9d3d c5cc a8be 1a19 64be e5ab 7c3c
00000250: cd56 863d 3f74 eb3e 0f6a 34be 2048 76be
00000260: 9529 7bbe 8ae9 c63e a057 68bd d7c7 723e
00000270: 75d5 cc3d 6020 a2bd 09e1 4abe 9d8e 3cbd
00000280: 913c 753e 4af3 aa3d b0a5 963e 8a22 923d
00000290: f37e a03d f314 be3e c12a f1bd 0059 e7bd
000002a0: 74d2 8c3c 9678 b63b 91d5 d2bd 65e9 9f3e
000002b0: 992c 2ebe 07e3 2f3c 058f 003c 28b2 eb3d
000002c0: a92e 9fbd e095 bc3d f0df 51be 9471 29be
000002d0: 1f15 3b3e 8605 48bd a6eb 513e aa33 4a3d
000002e0: d3ab 3a3e 9cd0 8d3d 08ac e93d 6d99 163c
000002f0: 0931 7ebe 05c9 823e 35a9 883d ba29 233e
00000300: 4903 60be 27af 1ebd f4cd 763c f77b 163d
00000310: 1a19 74be 2341 883e a859 4ebe ce22 1e3e
00000320: 7d1d 9abe ebab 593e dfa1 483e 8505 6c3e
00000330: 66ee 953e c3de 3bbe c35e df3d 2137 06be
00000340: ccb5 abbd 9b7d 623d 70bd aa3d 3483 b43d
00000350: ba6d 1f3e 5d26 b23e 0cd1 2d3d ac65 32be
00000360: 85d4 003e a132 8d3e ef1f 12be f609 86be
00000370: db94 bebd 2496 b23d 6c13 9f3e 2013 6d3e
00000380: 2297 e4bd f11d fabd a2c1 debb b559 8c3e
00000390: 4443 143e 2efd 8b3e f6fa 883a be61 a23c
000003a0: b24d 91be fb18 dabd 10f1 063d ecda fa3e
000003b0: f3c0 9dbd 2926 5b3e 2307 0c3d 3091 7d3d
000003c0: 1333 83bd 3259 1fbd 2abb 87bd 85c8 52be
000003d0: 9ff9 22be 0452 133e a592 9b3d 05a8 82bc
000003e0: 8414 79be 96fe 04bd c24e 0e3c 5441 86be
000003f0: 1a71 893d 9ae7 3abd 732c 1abe 0a63 09be
0.2579336 -0.094926834 0.29497704 0.25473633 0.23460525 0.18231659 0.101947404 -0.013229506
-0.15794505 0.12537745 0.0561532 -0.16217285 0.20844984 0.03160579 -0.044740647 -0.39667153
-0.25618228 0.16888778 0.11108045 -0.080484204 0.08693755 -0.048825193 0.14097051 -0.020584675
0.2487811 0.08455589 -0.14361492 -0.31223646 0.34187627 0.0062496285 0.03776035 -0.047918417
-0.016992854 -0.28270748 -0.18436669 0.07649078 -0.14088023 0.07860067 0.17996524 -0.061158504
-0.094325274 0.016069116 0.061421394 0.15341416 -0.1559472 0.3077071 0.24231751 0.14762008
-0.15994512 0.14848872 0.2272324 0.14579828 0.08245271 0.118994884 -0.09527849 -0.20927319
0.08070493 -0.30254897 0.14042729 -0.27597553 -0.04284023 0.34443006 0.16603144 0.105484284
-0.09588768 -0.044925567 -0.29214644 0.24266076 0.11240468 0.14235564 -0.16094758 -0.17239882
-0.032177974 -0.05234586 -0.21841772 0.13810925 -0.17256075 -0.092947 0.12740535 0.2541816
0.10228519 0.11205018 0.30117503 -0.2368365 -0.052869644 0.043406177 -0.27842903 0.08211217
0.056351457 0.2876277 -0.018200766 0.09944667 -0.15049788 0.13296197 -0.13575989 0.25356683
-0.016315002 0.1739997 -0.23253433 0.13007823 0.08688349 -0.12562945 0.0037512032 0.15433936
0.24934758 0.052639034 -0.005561783 -0.1093758 -0.05645992 -0.019747142 -0.076484844 0.1563087
0.15466528 -0.14762083 -0.1109441 -0.12756984 0.06938053 -0.06332146 0.0383883 0.021795208
0.025798295 0.121281326 -0.077194184 -0.09467538 -0.21140325 -0.043736823 -0.03940272 -0.30398253
-0.14451286 -0.04708403 0.07494172 0.047228836 -0.31383798 -0.15993683 -0.10846773 0.34069946
0.05959127 -0.05813601 -0.060887843 -0.54146564 -0.06847655 0.08929692 -0.04148391 -0.12970057
0.07707596 -0.32968727 -0.222752 0.015421842 0.06559525 0.45987126 -0.17618583 -0.24050951
-0.24527581 0.3885005 -0.05672419 0.23709045 0.10001651 -0.07916331 -0.19812407 -0.046034444
0.23948886 0.08347185 0.29423285 0.07135494 0.07836714 0.37125358 -0.11775733 -0.11296272
0.017190196 0.005568574 -0.10294641 0.31232753 -0.170092 0.01073528 0.0078465985 0.1150859
-0.077725716 0.09208274 -0.20495582 -0.16547233 0.18269776 -0.048833393 0.20500049 0.049365677
0.18229608 0.06924555 0.114097655 0.009191853 -0.24823393 0.2554399 0.06672899 0.15933886
-0.21876253 -0.038741257 0.0150637515 0.036739316 -0.238377 0.26612195 -0.20151389 0.15442964
-0.30100623 0.21256988 0.19592999 0.2304898 0.29283446 -0.18346696 0.10906746 -0.13106968
-0.083842844 0.055295568 0.083369136 0.088140875 0.15569201 0.34794894 0.04243569 -0.17421597
0.1258107 0.2757769 -0.14269994 -0.26179475 -0.09305736 0.08720043 0.31069505 0.23151827
-0.11161639 -0.12212742 -0.006797985 0.2741219 0.14478785 0.27341598 0.0010450769 0.019821998
-0.2837959 -0.10649296 0.03294474 0.4899515 -0.07702818 0.21401276 0.034186494 0.06190604
-0.06406226 -0.038903423 -0.066274956 -0.20584305 -0.15915535 0.14386755 0.075963296 -0.015949259
-0.24324232 -0.032469355 0.0086857695 -0.26221716 0.067110255 -0.04563103 -0.15056019 -0.13416687

fc3.bias f4 [10]
00000000: f51e 85bd eb97 40bf b096 12be f8a6 a33e
00000010: 2f0e 3e3f fa5d 02be 70f6 3bbe dd0b 66be
00000020: 3376 183f ebb5 8cbe
-0.06500045 -0.7523181 -0.14315295 0.31963325 0.7424039 -0.12731162 -0.18355727 -0.22465463
0.5955536 -0.27482542
