Demo/CIFAR_Classifier/model/parameter.pt (torch_old, 249664 bytes, 10 tensors)

conv1.weight f4 [6, 3, 5, 5]
0	0x3e8551fb	0.2603911
1	0xbe6c6c1a	-0.23088112
2	0x3d902f1c	0.070402354
3	0xbe3380b2	-0.17529562
4	0xbe9576cb	-0.29192194
5	0x3c0b424f	0.008499696
6	0xbf6cec25	-0.9254783
7	0x3d8ccebc	0.06875369
8	0x3f039d30	0.51411724
9	0xbeb3f3b8	-0.3514688
10	0xbf1b99af	-0.6078138
11	0x3f0d7ecb	0.55271596
12	0xbd755813	-0.059898447
13	0xbf17d1ca	-0.5930449
14	0x3d37b51e	0.04485046
15	0x3e7c7aa6	0.24656162
16	0x3f35a550	0.7095537
17	0xbeb62fd2	-0.3558336
18	0xbf09abc3	-0.5377771
19	0x3e1698f3	0.14706783
20	0x3e4a2e4f	0.19744228
21	0xbe85330d	-0.2601551
22	0x3d962bfd	0.07332609
23	0x3ef97715	0.48723665
24	0x3b9bf5be	0.0047595194
25	0x3e853dfb	0.2602385
26	0xbe2ead47	-0.17058288
27	0x3e8676f5	0.26262632
28	0x3d039084	0.032120243
29	0xbd783db0	-0.060605705
30	0x3dd74596	0.10511319
31	0xbf2ddb04	-0.67912316
32	0x3e804d26	0.2505886
33	0x3f4727a3	0.77794856
34	0x3cd47ece	0.025939371
35	0xbf008e42	-0.5021707
36	0x3f40501d	0.75122243
37	0x3d2e45d5	0.042547066
38	0xbe2fdc0a	-0.17173782
39	0x3e0fee7f	0.14055823
40	0x3e02e67a	0.12783232
41	0x3f35b045	0.7097209
42	0xbe9541fc	-0.29151905
43	0xbeeb95e0	-0.46012783
44	0x3e4ea6f3	0.20180874
45	0xbe13f77a	-0.14449874
46	0xbed33e9e	-0.4125871
47	0x3c8fc804	0.01755143
48	0x3ea04a1b	0.31306538
49	0xbe3a7f1e	-0.18212554
50	0x3e64a9a4	0.22330338
51	0xbe632fa1	-0.22186138
52	0x3c10a6ec	0.00882886
53	0xbe52159b	-0.20516054
54	0xbd6e76d3	-0.05821879
55	0xbc54eda2	-0.012996109
56	0xbf33a052	-0.70166504
57	0x3e4c1ee8	0.19933665
58	0x3f094644	0.5362284
59	0xbdf22a30	-0.11824453
60	0xbee84368	-0.45363927
61	0x3f018660	0.50595665
62	0xbc45d00f	-0.012073531
63	0xbeb52b4c	-0.35384595
64	0x3e48455b	0.19557707
65	0x3e8c75bf	0.27433583
66	0x3f17af0f	0.59251493
67	0xbeada42b	-0.33914313
68	0xbf0adb86	-0.54241216
69	0x3e680a8c	0.22660273
70	0x3e43df12	0.19128063
71	0xbee58ca9	-0.44833878
72	0xbca8d5e3	-0.020609802
73	0x3e91f14c	0.28504407
74	0xbe4acf1c	-0.19805568
75	0x3e56177d	0.20907398
76	0x3e284695	0.16433175
77	0x3e0c2e27	0.1368948
78	0x3db7c760	0.08973575
79	0x3e104f8a	0.14092842
80	0x3e77a97b	0.24185745
81	0x3dd6f49a	0.10495873
82	0x3e19844f	0.14991878
83	0x3e239eda	0.15978566
84	0x3e7dd379	0.24787702
85	0x3d829eb4	0.063779265
86	0xbe4879fd	-0.19577785
87	0xbd9dc8e5	-0.07704333
88	0xbdec5f13	-0.115415715
89	0x3d9781e2	0.0739782
90	0x3e0319e2	0.12802842
91	0x3bd9af00	0.006643176
92	0xbbcfb71f	-0.0063389684
93	0xbdc57e08	-0.09643179
94	0xbe02b8e2	-0.1276584
95	0x3cd1ae9f	0.025595961
96	0xbe2d169f	-0.1690316
97	0xbe51a2ce	-0.20472261
98	0xbe0829de	-0.13297221
99	0xbdfd8d5b	-0.12380477
100	0xbe83c682	-0.25737387
101	0xbea45a46	-0.32100123
102	0xbe305568	-0.1722008
103	0xbe957e2c	-0.29197824
104	0xbcaf9ee0	-0.021438062
105	0xbe277927	-0.1635481
106	0xbeb834f1	-0.3597789
107	0xbe97cd85	-0.29648986
108	0xbe966fe5	-0.29382244
109	0x3d30b68f	0.04314285
110	0xbc855221	-0.016274514
111	0xbeb157f7	-0.34637424
112	0xbeebaff9	-0.46032694
113	0xbdc1e379	-0.09467215
114	0x3e2436b4	0.16036493
115	0xbc27fdee	-0.010253413
116	0xbea90f89	-0.33019665
117	0xbe75ed93	-0.24016409
118	0xbde92903	-0.113847755
119	0xbc88b01c	-0.016685538
120	0x3dad246e	0.08454214
121	0xbe1a66dd	-0.15078302
122	0xbd05c334	-0.032656863
123	0xbd0f45c2	-0.034978636
124	0xbb41bf65	-0.0029563543
125	0x3e0e8cc9	0.13920893
126	0x3dabdd22	0.08391787
127	0x3e0d0f1b	0.13775294
128	0xbd3db0d9	-0.046311233
129	0x3ddb2f2a	0.10702355
130	0x3d8a34f0	0.06748378
131	0xbdf2e36c	-0.118597835
132	0xbdece8ca	-0.115678385
133	0xbd4deab9	-0.050272677
134	0x3d8b608c	0.06805524
135	0x3e4f4317	0.20240436
136	0xbde4f0e7	-0.11178761
137	0xbc8af066	-0.016960334
138	0xbcb27c45	-0.021787772
139	0x3ccb8ee2	0.024848405
140	0x3e61f871	0.22067429
141	0xbdda6250	-0.10663283
142	0xbe1f0863	-0.15530543
143	0x3da2f7d2	0.07957424
144	0x3db34d6c	0.087550014
145	0x3e6516a3	0.22371916
146	0x3db6e15f	0.08929705
147	0x3d221772	0.03957314
148	0x3d0b19db	0.033960205
149	0x3c14c81e	0.009080915
150	0x3d4c2760	0.04984224
151	0xbe23eed8	-0.1600908
152	0xbe8176bd	-0.25285903
153	0xbe1461be	-0.1449041
154	0x3e08cb80	0.13358879
155	0xbe01665a	-0.126367
156	0xbea18d99	-0.31553343
157	0xbe86cae9	-0.26326683
158	0xbdf42093	-0.119202755
159	0xbb8204ee	-0.003967873
160	0xbe94ea70	-0.29085112
161	0x3d3f8c4b	0.046764653
162	0x3e1cc5cf	0.15309833
163	0x3d677897	0.056511488
164	0xbe29c8c8	-0.16580498
165	0xbc4ab0c3	-0.012371245
166	0x3e5261c0	0.20545101
167	0x3ec6d23a	0.38832265
168	0x3e38e715	0.18056901
169	0xbd0e2b92	-0.03470952
170	0x3e156edc	0.14593071
171	0x3eb415c3	0.35172853
172	0x3e36ef45	0.17864712
173	0x3e8e4128	0.27784085
174	0x3e46034c	0.19337195
175	0x3e5c1ab9	0.21494569
176	0xbdc43cfc	-0.09581944
177	0xbdd6858c	-0.10474691
178	0xbe2ba8c3	-0.16763596
179	0x3ddb3a89	0.10704524
180	0x3d536ed2	0.05161936
181	0xbe314ba3	-0.1731401
182	0xbea4b2c9	-0.32167652
183	0xbd5af82a	-0.053459324
184	0x3e23994d	0.15976448
185	0xbe90dea8	-0.28294873
186	0xbde27e40	-0.110592365
187	0x3d15be04	0.036558166
188	0x3daa6f68	0.0832203
189	0xbe17faae	-0.1484172
190	0xbe20ad3c	-0.15691084
191	0x3e2b0642	0.16701606
192	0x3e2f9159	0.1714529
193	0x3deff266	0.11716156
194	0xbdf02b45	-0.11727003
195	0xbe2497bb	-0.16073506
196	0xbd7694e2	-0.06020058
197	0x3ca626f1	0.02028224
198	0xbd9e4062	-0.07727124
199	0xbe8af8c1	-0.2714291
200	0x3d660ebb	0.05616639
201	0xbdb2720b	-0.08713158
202	0xbe9905e7	-0.29887316
203	0xbe5a0fad	-0.21295042
204	0x3de9e3ba	0.114203885
205	0x3e1d3afb	0.1535453
206	0xbe4bd2ee	-0.19904682
207	0xbe306e37	-0.17229544
208	0x3d22fd0e	0.039792113
209	0x3cab9b45	0.020948062
210	0xbd2ce9d4	-0.042215183
211	0x3e03c1b2	0.12866858
212	0x3ed8f75b	0.42376217
213	0x3e87edfb	0.26548752
214	0xbd65b317	-0.056078997
215	0xbc0062b5	-0.007836034
216	0x3e9639c2	0.2934094
217	0x3eff8ae1	0.49910644
218	0x3e9fa712	0.31182152
219	0xbd8674e3	-0.06565263
220	0xbe27d8d3	-0.16391306
221	0x3e2b7ad9	0.16746081
222	0x3e7de29b	0.24793474
223	0x3e8ef283	0.27919397
224	0x3cec910e	0.028877761
225	0xbcf9ff9b	-0.03051739
226	0xbd75c731	-0.060004417
227	0xbdd205a7	-0.10254984
228	0xbe339ac1	-0.17539503
229	0x3dbbe8d0	0.09175265
230	0xbec38fa0	-0.38195515
231	0xbe4803ca	-0.19532695
232	0xbe5fd1e3	-0.21857409
233	0xbeb5971a	-0.35466844
234	0x3ca30533	0.01989994
235	0xbedead34	-0.43491518
236	0xbec76ef8	-0.3895185
237	0xbe4cdab7	-0.20005308
238	0xbe9aff52	-0.3027292
239	0xbe011ec5	-0.12609394
240	0xbe4d4d39	-0.2004899
241	0xbde570cd	-0.11203156
242	0xbd9e98d1	-0.07743991
243	0xbead027e	-0.33790964
244	0x3cdca4fa	0.026934136
245	0xbdcc9568	-0.099894345
246	0x3d59cf47	0.05317619
247	0xbdafc08e	-0.08581649
248	0xbe629688	-0.22127736
249	0x3da1b53b	0.07895895
250	0x3d095408	0.033527404
251	0x3d01b785	0.03166916
252	0x3e74c82c	0.23904485
253	0xbd0d5bf6	-0.03451153
254	0x3d0ec409	0.034854922
255	0x3db3f51a	0.08786984

conv1.bias f4 [6]
0	0x3d948a43	0.07252934
1	0xbd5fb835	-0.054619033
2	0x3ec519ae	0.38496155
3	0x3f28e885	0.65979797
4	0xbda2c60a	-0.07947929
5	0xbe76dbb7	-0.24107252

conv2.weight f4 [16, 6, 5, 5]
0	0x3e0676a6	0.13131198
1	0x3e2d2683	0.16909222
2	0x3e5eaa72	0.21744707
3	0x3e23e335	0.16004641
4	0x3eb84a44	0.3599416
5	0x3e77dee3	0.24206118
6	0x3d02e6e2	0.03195847
7	0x3e31058b	0.1728727
8	0x3e912db8	0.28355193
9	0x3d410203	0.04712106
10	0x3daed2b0	0.08536279
11	0x3e37b31b	0.17939417
12	0x3e3ebc0c	0.18626422
13	0xbd4ef944	-0.050530687
14	0x3e84d619	0.25944594
15	0xbd5a3361	-0.053271655
16	0x3beff687	0.0073230895
17	0xbdd93587	-0.10605913
18	0x3dc354a7	0.095376305
19	0x3e44ffe3	0.19238238
20	0xbe2ee4bd	-0.17079444
21	0xbe01e07e	-0.12683293
22	0xbd377c25	-0.044796128
23	0xbd09fc46	-0.033687852
24	0xbe186540	-0.14882374
25	0xbe24abd2	-0.16081169
26	0xbe128ab5	-0.14310725
27	0xbe210bfe	-0.15727231
28	0xbdd9f197	-0.10641783
29	0x3e432803	0.19058232
30	0xbe547021	-0.20745899
31	0xbd9bdd5e	-0.07610582
32	0xbdba7b8c	-0.09105596
33	0x3cef8ff8	0.029243454
34	0x3e4761bc	0.19470876
35	0xbe5dd340	-0.21662617
36	0xbd9704f0	-0.07373989
37	0x3c4d8897	0.012544773
38	0x3e31b0b3	0.17352562
39	0x3dda3e33	0.10656395
40	0xbdada64d	-0.08478985
41	0xbc9dbd8f	-0.019255428
42	0x3e1dc537	0.15407263
43	0x3dfacc9d	0.12246058
44	0x3dd51c97	0.10405844
45	0xbd8198eb	-0.06327995
46	0x3e1329e1	0.14371444
47	0x3dce49d9	0.10072679
48	0x3dd4cc0a	0.1039048
49	0x3e1f975c	0.15585083
50	0x3c635ec0	0.013877571
51	0xbdb909fa	-0.09035106
52	0xbcb5f8ba	-0.022213329
53	0x3d91d1ba	0.0712008
54	0x3e0f6fc8	0.14007485
55	0xbe31d50e	-0.1736643
56	0x3c425a51	0.011862353
57	0x3dc68cc3	0.09694817
58	0xbcbfbbae	-0.023404922
59	0xbdae502e	-0.08511387
60	0x3e55d0e4	0.20880467
61	0x3e6740f8	0.22583377
62	0xbea2380a	-0.3168338
63	0xbd989071	-0.07449425
64	0x3e0a89b0	0.13529086
65	0x3e44425c	0.19165939
66	0xbe8757e8	-0.26434255
67	0xbd0294e6	-0.031880282
68	0x3e674599	0.22585143
69	0x3dcff263	0.101536535
70	0xbe6588f9	-0.22415532
71	0x3c0a2bf7	0.008433334
72	0x3eacbb03	0.3373643
73	0x3dc1e930	0.09468305
74	0x3d5c801c	0.053833112
75	0xbea3c7d0	-0.31988382
76	0xbe864a6b	-0.2622865
77	0xbe148654	-0.14504367
78	0xbdc9a910	-0.09846699
79	0x3c84d38a	0.016214151
80	0xbe4af652	-0.19820526
81	0xbe1a4083	-0.15063672
82	0xbd708f66	-0.058730505
83	0xbcb5c1b8	-0.022187099
84	0x3e14c5bb	0.14528553
85	0xbe858b6d	-0.26082936
86	0xbd23f71e	-0.04003059
87	0x3d6c42a3	0.057680737
88	0x3d331b17	0.043727007
89	0x3e5449de	0.20731303
90	0xbe87dd8e	-0.2653622
91	0x3ca40213	0.02002052
92	0x3db42c6e	0.08797537
93	0x3e532e8a	0.20623222
94	0x3e9b9d39	0.3039339
95	0xbed0b96f	-0.40766475
96	0xbdc52a75	-0.09627239
97	0x3dbcbc93	0.09215655
98	0x3e40b243	0.18818001
99	0x3eaeacbd	0.34116164
100	0xbd8e3fc2	-0.069457546
101	0x3dec38cb	0.1153427
102	0x3e08db73	0.13364963
103	0xbd24b439	-0.040210936
104	0xbe61c1c3	-0.2204657
105	0x3d9dc7a2	0.077040926
106	0x3dcb3521	0.09922243
107	0xbde9d273	-0.11417093
108	0xbda8c895	-0.08241383
109	0xbdd479bb	-0.10374781
110	0x3bfb9152	0.0076772356
111	0xbe25f526	-0.16206798
112	0xbd94a0bc	-0.0725722
113	0xbe043690	-0.12911439
114	0xbd88c8f2	-0.06678952
115	0xbde0e631	-0.109814055
116	0xbd796102	-0.06088353
117	0xbcd241ce	-0.025666144
118	0xbe499e83	-0.19689374
119	0xbca517d3	-0.020152962
120	0xbc0acadd	-0.008471218
121	0x3bee624e	0.0072749024
122	0xbe57841a	-0.21046486
123	0x3b08437c	0.0020792177
124	0x3d026c74	0.03184171
125	0xbd521cf0	-0.05129713
126	0x3d679e33	0.056547355
127	0xbcfb9460	-0.0307104
128	0xbd43af31	-0.047774497
129	0x3e38924a	0.18024555
130	0x3d749746	0.059714578
131	0x3bfcfc7c	0.007720528
132	0xbd82d559	-0.06388349
133	0x3da97050	0.08273375
134	0xbdb854c2	-0.09000541
135	0xbdc62c24	-0.09676388
136	0x3e17916c	0.14801568
137	0x3e0536a3	0.13009124
138	0x3cabe076	0.020981055
139	0xbe182059	-0.1485609
140	0x3e163387	0.14668094
141	0x3e93e6e4	0.28887093
142	0x3d8e9129	0.06961281
143	0xbd1cf71e	-0.038321607
144	0xbe817d12	-0.25290734
145	0x3e7af3e0	0.24507093
146	0x3d89be67	0.067257695
147	0xbd4a1f17	-0.049346056
148	0xbdefd941	-0.1171136
149	0xbdadd365	-0.08487586
150	0x3d5d1633	0.05397625
151	0xbe947be6	-0.29000777
152	0xbe73b0ed	-0.2379796
153	0xbe79df01	-0.24401475
154	0xbdf22e31	-0.118252166
155	0xbbca3a85	-0.006171527
156	0xbde5d0a9	-0.112214394
157	0xbde7378d	-0.11289892
158	0xbe86a1c5	-0.26295295
159	0xbe864d39	-0.2623079
160	0x3e0d1ac2	0.13779739
161	0xbc8aeac2	-0.016957644
162	0xbd38afd4	-0.045089558
163	0xbe18f5ed	-0.14937563
164	0xbe825e68	-0.2546265
165	0x3df9113a	0.12161489
166	0x3e38e13d	0.18054672
167	0xbd5326bf	-0.051550623
168	0x3d22a824	0.039711133
169	0xbdcc4e88	-0.09975916
170	0x3d942451	0.07233489
171	0x3db05f75	0.08611957
172	0x3b15049e	0.0022738348
173	0xbd36c867	-0.044624712
174	0x3c3ac623	0.011399779
175	0x3d9df6ae	0.07713066
176	0x3aef33b3	0.001824966
177	0x3d1865dd	0.03720652
178	0x3e11dd5a	0.14244595
179	0x3de9664b	0.11396464
180	0x3dab51ae	0.083651885
181	0x3de081ac	0.10962233
182	0x3c8c328c	0.017113946
183	0x3e12ad1d	0.1432385
184	0x3df8e570	0.12153137
185	0xbd004e31	-0.03132457
186	0xbc956759	-0.018237757
187	0xbc83b4cd	-0.016077423
188	0x3d5da2cc	0.054110333
189	0x3bd12dab	0.006383618
190	0x3d9e6257	0.077336006
191	0xbca40584	-0.020022161
192	0x3d949f58	0.07256955
193	0x3ccd465c	0.025057964
194	0x3d1f3cd3	0.038876366
195	0xbe058672	-0.13039568
196	0xbc7cfbd8	-0.015440904
197	0xbe0aaf21	-0.13543369
198	0xbe0d64cb	-0.1380798
199	0xbb057e9b	-0.0020369652
200	0x3e1c97c5	0.1529227
201	0x3d68a5b1	0.05679864
202	0x3db6ca0b	0.089252554
203	0x3e4fddc2	0.20299438
204	0x3dc3cab8	0.0956015
205	0x3d2ad252	0.041704483
206	0x3ddb7d19	0.1071722
207	0x3daca71a	0.084303096
208	0x3dd1b6dd	0.102399565
209	0x3d892949	0.06697328
210	0xbe001bd4	-0.12510616
211	0xbd21dae0	-0.039515376
212	0xbe030405	-0.12794502
213	0xbaad7537	-0.0013233785
214	0xbd5372e1	-0.05162323
215	0xbe5d4510	-0.21608377
216	0xbe30198b	-0.17197244
217	0xbe3f54aa	-0.1868464
218	0xbe29bccd	-0.16575928
219	0xbe69b03b	-0.22821133
220	0x3cfab60b	0.030604383
221	0xbd20eddc	-0.03928934
222	0xbd5f81fb	-0.05456732
223	0xbdd5729b	-0.1042225
224	0xbe1c40c9	-0.15259089
225	0x3d2fc8c2	0.042916067
226	0x3e001c50	0.125108
227	0xbd1e31df	-0.03862178
228	0xbd8d3683	-0.06895163
229	0xbe033e2f	-0.1281669
230	0x3d72e535	0.05930062
231	0x3dc15cc2	0.0944152
232	0x3cbf4f32	0.023353193
233	0x3c501fce	0.012702895
234	0x3d99002f	0.07470738
235	0x3d84d179	0.06485266
236	0x3cfbb010	0.030723602
237	0x3d8f9fa5	0.07012872
238	0xbbe43b87	-0.006965104
239	0x3db34d63	0.08754995
240	0xbd610fc7	-0.054946687
241	0x3d5a8a52	0.05335457
242	0x3d879f43	0.06622174
243	0x3c95fdee	0.01830956
244	0x3c94fc7a	0.018186796
245	0xbe1e7388	-0.15473759
246	0xbe0dca8e	-0.138468
247	0xbe3fd2e4	-0.18732792
248	0xbe10584f	-0.14096187
249	0xbe626e9a	-0.22112504
250	0xbea5155d	-0.3224286
251	0xbe3f7ad7	-0.18699203
252	0xbe22cca5	-0.15898378
253	0xbd770034	-0.060302928
254	0x3dd15c33	0.10222664
255	0xbe6ed993	-0.23325185

conv2.bias f4 [16]
0	0xbefe4187	-0.49659368
1	0x3e3bdac4	0.18345171
2	0x3f842b86	1.0325782
3	0x3e2360ce	0.15954897
4	0x3e9050d5	0.2818667
5	0xbd128f4d	-0.035781194
6	0xbf191a51	-0.5980578
7	0x3f083af4	0.53214955
8	0x3e03740d	0.12837239
9	0xbea235a3	-0.31681547
10	0xbc14dd50	-0.009085968
11	0x3e69faa5	0.2284952
12	0xbf9ba580	-1.2159882
13	0x3d84769f	0.06467938
14	0x3db68d95	0.089137234
15	0xbec1384a	-0.37738258

fc1.weight f4 [120, 400]
0	0xbd9d43f1	-0.076789744
1	0x3c3f5583	0.011678102
2	0xbba87b93	-0.0051416843
3	0xbd16bf6e	-0.036803655
4	0xbdaed3d6	-0.08536498
5	0xbb292207	-0.0025807635
6	0x3de418e7	0.11137562
7	0x3cc529a1	0.024067702
8	0x3c906397	0.017625613
9	0x3d622306	0.055209182
10	0xbcad2c45	-0.021139273
11	0x3c11bece	0.008895589
12	0xbbc0c54b	-0.005882894
13	0xbc8c0c90	-0.017095834
14	0x3ccf4e3d	0.025305862
15	0xbdd135f3	-0.10215368
16	0xbd64e8bd	-0.05588602
17	0xbdd8995e	-0.105761275
18	0xbd656379	-0.056003068
19	0x3cf41a1b	0.029797604
20	0xbdb4f0e8	-0.08835012
21	0xbd33c10e	-0.043885283
22	0xbd7d5cea	-0.061856188
23	0xbd1e9a49	-0.038721357
24	0xbaed5f9a	-0.0018110157
25	0xbd2f853d	-0.042851675
26	0xbc82e335	-0.015977481
27	0xbd058994	-0.032601908
28	0xbd6b4e8d	-0.05744796
29	0xbdc3d86c	-0.095627636
30	0x3e12991d	0.1431622
31	0x3d3da61f	0.046301004
32	0x3b041b9c	0.0020158058
33	0x3d66e18d	0.056367446
34	0x3d3fa589	0.046788726
35	0x3dc942c7	0.0982719
36	0x3d636b01	0.05552197
37	0xbd149598	-0.036275476
38	0xbc28d954	-0.010305721
39	0x3d0be9db	0.03415857
40	0xbd3115a2	-0.04323352
41	0x3aba3eea	0.0014209424
42	0x3b8ece66	0.0043581007
43	0xbd19f5fb	-0.0375881
44	0xbb1b746d	-0.0023720518
45	0xbbe4dccc	-0.006984329
46	0x3d494634	0.049139217
47	0x3dcf0d3c	0.10109946
48	0x3d90125b	0.07034751
49	0xbb4304c1	-0.0029757472
50	0xbd8e8968	-0.06959802
51	0x3cfe56c6	0.031047236
52	0xbd3a3350	-0.04545909
53	0xbd54cdcd	-0.05195408
54	0xbd70e692	-0.05881364
55	0xbd914a9c	-0.07094309
56	0xbd76d572	-0.06026215
57	0xbc07bc23	-0.008284601
58	0xbd79b47f	-0.06096315
59	0x3c194db9	0.009356909
60	0xbd9b2a9d	-0.07576487
61	0xbd19e14e	-0.037568383
62	0xbd9475a8	-0.07249004
63	0xbdb9aba7	-0.09065943
64	0xbc99840b	-0.01873972
65	0xbe0b2ac8	-0.13590539
66	0xbdcb286c	-0.09919819
67	0xbdf3e3b7	-0.119086675
68	0xbddb5d32	-0.10711135
69	0xbccd201c	-0.025039725
70	0xbe198237	-0.1499108
71	0xbe03b5d4	-0.1286233
72	0xbda3afdb	-0.07992526
73	0xbe2b7a31	-0.16745831
74	0xbe171d57	-0.14757286
75	0x3d0010f4	0.031266168
76	0x3c179f9a	0.009254361
77	0x3c5796a8	0.013158478
78	0xbcd0c89f	-0.025486289
79	0x3c0c4044	0.008560244
80	0x3d9f6414	0.0778276
81	0x3cae9cc0	0.021314979
82	0x3d116e3e	0.035505526
83	0x3c4c93d9	0.0124864215
84	0x3d20f34f	0.039294537
85	0x3d196d8a	0.03745798
86	0x3d3d2df5	0.046186406
87	0xb95368c8	-0.00020161562
88	0xbd09f2ec	-0.033678934
89	0xbd680f93	-0.056655478
90	0xbd4005e5	-0.04688062
91	0x3d6ebbde	0.058284633
92	0xbc9bd013	-0.019020116
93	0xbc2dd4ba	-0.0106098
94	0x3ca29eb0	0.019851059
95	0xbd148182	-0.03625632
96	0x3c813b68	0.015775397
97	0x3c1511da	0.009098494
98	0x3ca42cbe	0.020040866
99	0x3d98f3c6	0.07468371
100	0xbd4c35c5	-0.049855966
101	0x3d06b59c	0.03288804
102	0x3ddecfa2	0.108794466
103	0x3d137d16	0.036007963
104	0xb9fef4e5	-0.00048629116
105	0x3d4f048f	0.050541457
106	0x3da87e93	0.08227267
107	0x3da9d704	0.08292964
108	0x3d94aa2a	0.07259019
109	0x3cae3bc0	0.021268725
110	0xbd4b5b21	-0.049647454
111	0xbbea327d	-0.007147132
112	0x3d85ed18	0.06539363
113	0x3d08df67	0.033416178
114	0x3d2c2375	0.042026002
115	0xbcdbdc7b	-0.026838532
116	0xbd2779f0	-0.040887773
117	0xbcbde3d2	-0.023179922
118	0xbbd3aa18	-0.0064594857
119	0x3d0914dc	0.03346716
120	0xbda86159	-0.082216926
121	0xbded5b6e	-0.115897045
122	0xbcf027ff	-0.029315947
123	0xbd80bbbb	-0.06285807
124	0x3cf22a05	0.029561052
125	0x3d3c82c9	0.046023164
126	0xbcc985dc	-0.024599962
127	0x3d43a360	0.04776323
128	0x3d2b2789	0.04178575
129	0x3cbaf799	0.022823142
130	0xbd26218f	-0.040559348
131	0x3c07a099	0.008278036
132	0x3d028af9	0.031870816
133	0x3c0c4c29	0.00856308
134	0xbd0ccce4	-0.034375086
135	0xbd519603	-0.051168453
136	0xbca7d039	-0.02048503
137	0x3d234e29	0.03986946
138	0xbb15390e	-0.0022769603
139	0x3cfe2ad1	0.031026276
140	0xbc737f1f	-0.014861851
141	0xbc956b52	-0.01823965
142	0xbcb573e5	-0.02214999
143	0xbcbe956a	-0.023264606
144	0xbcd669f4	-0.02617357
145	0xbd2f58f2	-0.042809434
146	0xbd2ae612	-0.04172332
147	0x3d15e9d4	0.03659995
148	0xbce43d2b	-0.027861198
149	0x3cf451e0	0.029824197
150	0x3d27a13e	0.040925257
151	0x3b03efef	0.0020132025
152	0x3d2646d8	0.040594906
153	0x3d828f58	0.06374997
154	0xbd6bae1c	-0.05753909
155	0xbc9362d7	-0.017991466
156	0xbd2f7cfe	-0.04284381
157	0x3cbb223f	0.022843478
158	0xbcfb137f	-0.030648945
159	0xbd1b6a97	-0.03794345
160	0xbd9deaf5	-0.0771083
161	0xbdbf6edd	-0.09347317
162	0xbdac2e3d	-0.08407257
163	0xbdb02147	-0.08600097
164	0xbda6383d	-0.08116195
165	0xbd39e444	-0.045383707
166	0xbe4ad9e7	-0.19809686
167	0xbdf44815	-0.11927811
168	0xbd6dae4e	-0.058027558
169	0xbdde92f2	-0.10867871
170	0x3c492dcb	0.012278984
171	0xbcf85286	-0.030312788
172	0xbd874e2a	-0.066067055
173	0xbd785435	-0.06062718
174	0xbd96ed4e	-0.07369481
175	0x3d8e00c9	0.069337435
176	0x3dc90c8b	0.098168455
177	0x3d272058	0.04080233
178	0x3b69e7e8	0.0035691205
179	0x3b857c02	0.004073621
180	0x3c30271a	0.01075151
181	0xbbc34dc1	-0.0059601967
182	0x3ced5d7b	0.028975239
183	0x3b841b8e	0.004031605
184	0x3c10e57f	0.008843779
185	0x3d4da5e6	0.05020704
186	0x3b8ad65b	0.004236979
187	0x3d741e40	0.05959916
188	0xbd02d0d0	-0.03193742
189	0x3c7d1c62	0.0154486615
190	0xbc5aa726	-0.013345515
191	0x3cd8a869	0.026447492
192	0xbc9eaee8	-0.019370511
193	0x3d49fa75	0.04931112
194	0x3c1e1ee8	0.009650923
195	0x3c59de48	0.013297625
196	0x3db5e05c	0.08880684
197	0x3d9f8a1c	0.07790014
198	0x3df3b74f	0.11900198
199	0xbad13565	-0.0015961347
200	0x3c52e034	0.012870837
201	0x3b731912	0.00370938
202	0x3d78ffb8	0.060790747
203	0x3d81ba03	0.06334307
204	0xbd4a8700	-0.049445152
205	0xbd3f80e2	-0.04675377
206	0xbc0b10a3	-0.008487853
207	0x3d00df58	0.031462997
208	0x3d57dc90	0.05270058
209	0xbd39968d	-0.045309592
210	0xbd340ecf	-0.043959435
211	0x3da22e03	0.07918932
212	0xbbaf33bb	-0.005346743
213	0x3ddb2eee	0.107023105
214	0x3d2d948b	0.04237799
215	0x3b07ad29	0.0020702577
216	0xbd173df5	-0.03692432
217	0x3abb90f8	0.0014310172
218	0xbb3c6f99	-0.002875304
219	0xbc992669	-0.018695073
220	0x3d74d73e	0.059775583
221	0xbc326ff2	-0.010890948
222	0xbc3f20d4	-0.011665542
223	0x3cb82adb	0.022481373
224	0x3d56b270	0.052416265
225	0xbc817128	-0.015801027
226	0x3d8868e6	0.06660633
227	0x3b0e5336	0.0021717078
228	0x3cc7a194	0.024369039
229	0xbd63e044	-0.0556338
230	0xbe210ef7	-0.15728365
231	0x3d489158	0.048966736
232	0xbd1d3d9c	-0.038388833
233	0xbd75dd04	-0.06002523
234	0x3c3b68a4	0.0114385225
235	0xbe234f5e	-0.15948245
236	0xbd4e3eee	-0.050352983
237	0xbd08ad24	-0.033368245
238	0xbd4bf017	-0.049789514
239	0x3cc5d88a	0.024151105
240	0xbdbb1937	-0.09135669
241	0xbbd2bac4	-0.0064309556
242	0xbde58b6a	-0.11208232
243	0xbc9ec053	-0.019378817
244	0x3deabd8e	0.11461936
245	0xbcbcde8d	-0.02305534
246	0xbd019116	-0.031632505
247	0xbd85d11a	-0.065340236
248	0xbd563e8c	-0.052305743
249	0xbceb56d3	-0.028727924
250	0xbc04273d	-0.008065996
251	0x3d2781e6	0.040895365
252	0x3d79a85c	0.060951576
253	0xbd14114a	-0.0361493
254	0x3c046348	0.008080311
255	0xbc8ec600	-0.017428398

fc1.bias f4 [120]
0	0x3dbea441	0.09308673
1	0xbc81d761	-0.015849771
2	0xbbcdb274	-0.006277377
3	0xbcf5b559	-0.0299937
4	0x3d75b28e	0.059984736
5	0x3cc1fdd4	0.023680605
6	0xbdc1773f	-0.094465725
7	0xbe91fbc0	-0.28512383
8	0x3e39cd8f	0.1814482
9	0x3ddf9577	0.1091718
10	0xbd0fa033	-0.035064887
11	0x3e136b5d	0.14396425
12	0x3dd937e9	0.10606367
13	0x3e08b0a3	0.13348632
14	0x3e09db00	0.13462448
15	0x3bae0d01	0.005311609
16	0xbdb2d534	-0.087320715
17	0x3dc71132	0.097200766
18	0x3ea0225e	0.3127622
19	0xbd2e9e74	-0.04263158
20	0xbcafd4e6	-0.021463823
21	0xbd0bfa8a	-0.03417448
22	0x3cd15015	0.025550881
23	0x3e24a20c	0.16077441
24	0x3d755a62	0.05990065
25	0x3b7f1d54	0.0038927393
26	0x3e4b462c	0.19850987
27	0xbd9b983a	-0.07597394
28	0xbd8c83ba	-0.06861062
29	0xbdd0ef80	-0.10201931
30	0xbd42f60c	-0.04759793
31	0xbdc20ff6	-0.094757006
32	0x3c97a995	0.01851348
33	0x3c6cf443	0.014462533
34	0xbdffe7bc	-0.12495372
35	0xbd9345b2	-0.07191028
36	0xbd25fe26	-0.040525578
37	0x3d01a645	0.031652708
38	0x3ddac042	0.106812015
39	0x3d96c51c	0.073618144
40	0x3e24e1e3	0.16101794
41	0x3e5b7f27	0.21435224
42	0x3d99c751	0.0750872
43	0xbe37e2ed	-0.17957659
44	0x3e80aa40	0.2512989
45	0x3e5d1d0c	0.21593112
46	0xbe299df1	-0.16564156
47	0xbd41c28a	-0.047304668
48	0xbd557cdc	-0.05212103
49	0x3e283c7a	0.1642932
50	0xbb071274	-0.0020610364
51	0x3dfaefdf	0.12252783
52	0x3c48e62f	0.012261911
53	0x3d54268a	0.051794566
54	0x3cfadd65	0.030623147
55	0x3c69ea1d	0.014277008
56	0x3d8bea1a	0.06831761
57	0xbd49061b	-0.04907809
58	0xbdebbb04	-0.1151028
59	0x3c387dc7	0.011260456
60	0x3c9061ac	0.017624699
61	0x3d14638a	0.03622774
62	0xbc5984ce	-0.013276292
63	0xbb17ec72	-0.0023181704
64	0xbd079959	-0.033105228
65	0x3d484b8e	0.04890018
66	0xbe370ef9	-0.17876805
67	0x3e0471df	0.12934063
68	0x3e1543f8	0.1457671
69	0x3e67043a	0.22560206
70	0x3e21c360	0.15797186
71	0x3debcc8c	0.115136236
72	0x3cee1116	0.029060882
73	0xbd8b2adb	-0.067952834
74	0x3e1fb870	0.15597701
75	0x3c3b8501	0.011445285
76	0x3db969b9	0.09053368
77	0x3d900107	0.07031446
78	0x3d87f5eb	0.06638702
79	0x3e514454	0.20436221
80	0x3c68eb1f	0.0142162135
81	0x3d9354a7	0.071938805
82	0x3def2f8c	0.11678991
83	0x3dc994d1	0.098428376
84	0xbcbe77fa	-0.023250569
85	0x3d9e96a2	0.07743575
86	0x3d141666	0.036154173
87	0x3d5796b2	0.05263395
88	0xbe238f7d	-0.15972705
89	0x3ae72acf	0.0017636659
90	0xbda5b60e	-0.08091365
91	0xbc384701	-0.011247397
92	0xbc50f13e	-0.012752829
93	0x3d88fd60	0.066889524
94	0xbc6175d9	-0.013761007
95	0xbbc7c94a	-0.0060969936
96	0x3d9178c5	0.07103113
97	0xbe754b31	-0.23954464
98	0xbd0aa8bf	-0.033852335
99	0xbe6cf59d	-0.23140569
100	0xbcda5359	-0.026651071
101	0x3d9cf26a	0.07663424
102	0xbe025e7d	-0.12731357
103	0x3d2ddfda	0.04244981
104	0x3cf240dc	0.029571943
105	0xbca6ec6e	-0.02037641
106	0xbd85404d	-0.06506405
107	0x3e072e46	0.13201246
108	0x3d15b51b	0.03654967
109	0xbcddeddc	-0.02709096
110	0xbdf9cf95	-0.12197796
111	0xbd3eca14	-0.046579435
112	0x3e80b1d9	0.25135687
113	0x3d0e0b45	0.034678716
114	0x3d718f86	0.058974765
115	0x3dcd99d0	0.10039103
116	0x3e8632d9	0.2621067
117	0xbd3ef042	-0.046615846
118	0x3d49b9bd	0.0492494
119	0x3e316797	0.17324673

fc2.weight f4 [84, 120]
0	0x3d57d4cc	0.052693173
1	0xbc1a7cf8	-0.009429209
2	0xbde59527	-0.11210089
3	0xbd435d09	-0.047696147
4	0x3ddf9afb	0.10918232
5	0xba5e58b9	-0.00084818486
6	0xbdc967c6	-0.09834246
7	0xbdc53871	-0.09629906
8	0x3d1d58d9	0.03841481
9	0x3d1f5d58	0.03890738
10	0x3adb72f4	0.0016742633
11	0x3d6182d3	0.055056404
12	0xbc093f38	-0.008376889
13	0xbdc6fdc1	-0.097163685
14	0x3c3b4dcd	0.011432123
15	0xbdcb4e5d	-0.09927056
16	0xbda7dc8d	-0.081963636
17	0x3dc40dc8	0.09572941
18	0x3c4124c1	0.011788548
19	0x3d711f6d	0.05886786
20	0xbdb8d221	-0.09024454
21	0xbd2ba10a	-0.041901626
22	0x3d3fee8b	0.04685835
23	0x3e308451	0.17237975
24	0x3c2083e8	0.009797074
25	0xbc9afb41	-0.018918635
26	0xbd944f28	-0.0724166
27	0x3d9514d7	0.072793655
28	0x3dd85d39	0.10564656
29	0x3de1dfb9	0.11029
30	0xbd081c96	-0.033230387
31	0xbd38fce8	-0.045163065
32	0x3d0d63e6	0.0345191
33	0x3e36f733	0.17867737
34	0x3d493968	0.049127012
35	0x3ce714e3	0.028208202
36	0xbab96e96	-0.0014147337
37	0xbd6f3f99	-0.05841026
38	0x3dc2cb95	0.095114864
39	0x3e035320	0.12824678
40	0xbd9ba5bf	-0.07599973
41	0xbd7d4fe8	-0.061843783
42	0x3a82c91c	0.0009978148
43	0xbaa671e0	-0.0012698732
44	0x3db13a45	0.08653692
45	0xbd117e0f	-0.03552061
46	0xbdcc2764	-0.09968451
47	0xbdd58c99	-0.104272075
48	0xbd803585	-0.06260208
49	0xbc73998f	-0.014868154
50	0xbdaf239d	-0.085517146
51	0x3dd68728	0.10474998
52	0xbd5026b0	-0.050818145
53	0x3cc7f13d	0.024407024
54	0x3d635770	0.05550331
55	0xbd6f6596	-0.05844649
56	0xbdcd2916	-0.10017602
57	0x3dd2234f	0.10260641
58	0xbc6eef89	-0.014583477
59	0xbbd2754b	-0.006422674
60	0x3d6c608d	0.057709266
61	0xbda5ce64	-0.080960065
62	0x3d71c711	0.059027735
63	0x3d908ef0	0.07058513
64	0xbd5d8b10	-0.0540877
65	0x3d62dc4c	0.055385873
66	0x3d39f8fa	0.04540346
67	0xbd5ae19c	-0.053437814
68	0xbcc0b715	-0.0235248
69	0xbe2e066d	-0.16994639
70	0xbcd250a7	-0.025673224
71	0x3c8f5f62	0.017501537
72	0xbb7d2c35	-0.0038631086
73	0xbcb6d083	-0.022316223
74	0x3ce064f0	0.02739188
75	0x3e07428c	0.1320898
76	0xbd85f6b6	-0.06541197
77	0xbdf29dac	-0.1184648
78	0x3ba93443	0.005163701
79	0xbd62ff12	-0.055419035
80	0x3c7ff289	0.01562179
81	0x3dc9a25f	0.09845423
82	0x3e5f7bda	0.2182459
83	0xbdcfad93	-0.101405285
84	0xbc1d4e4b	-0.009601186
85	0x3d83adce	0.06429635
86	0xbe0b56f3	-0.13607387
87	0xbe0de627	-0.13857327
88	0xbda9a02a	-0.08282502
89	0xbcb65633	-0.0222579
90	0xbd899442	-0.06717731
91	0x3d7a52e8	0.06111422
92	0x3e01f41d	0.12690778
93	0xba9b3e23	-0.001184408
94	0x3dad5d1b	0.08465024
95	0x3e00c5c4	0.12575442
96	0x3dbdcb32	0.09267272
97	0x3d341b81	0.043971542
98	0xbe09c3e6	-0.13453636
99	0xbcbba681	-0.022906544
100	0x3d3e2d86	0.046430133
101	0xbd4eac8e	-0.05045753
102	0xbd79c12f	-0.06097525
103	0x3e027584	0.12740141
104	0xbac42279	-0.0014963887
105	0xbcd4124c	-0.02588763
106	0x3dd7b46d	0.1053246
107	0x3d22ff45	0.039794225
108	0x3d8f3ac9	0.06993634
109	0x3ba7c4ad	0.005119881
110	0xbd614ce9	-0.055004988
111	0xbda408ce	-0.08009492
112	0xbca55785	-0.020183334
113	0x3d0f8a81	0.035044197
114	0x3cff50c1	0.031166436
115	0x3d93df7b	0.0722036
116	0x3d65b4df	0.056080695
117	0xbe48a7e2	-0.19595292
118	0xbda0aef5	-0.078458704
119	0x3df8baf0	0.121450305
120	0xbdedb390	-0.116065145
121	0xbd8bcc73	-0.06826105
122	0xbd2ee85a	-0.042702056
123	0x3cad5d83	0.021162754
124	0xbc95e3b5	-0.018297056
125	0x3cfdabdb	0.030965736
126	0xbc5289eb	-0.012850265
127	0xbd028c4f	-0.03187209
128	0x3d0a181f	0.03371441
129	0x3d8e7f12	0.069578305
130	0x3d7c7c9a	0.061642267
131	0xbc568ba0	-0.013094813
132	0x3d97641f	0.073921435
133	0xbd803e0c	-0.062618345
134	0x39b9531a	0.00035347865
135	0x3dc901bb	0.09814783
136	0xbde29014	-0.11062637
137	0xbd24628c	-0.040133044
138	0xbb48a4b0	-0.003061574
139	0xbe2a1bb5	-0.16612132
140	0xbca038a8	-0.019558266
141	0x3d289f97	0.04116782
142	0xbd32d1cc	-0.04365711
143	0xbde84502	-0.11341287
144	0x3c842504	0.016130932
145	0x3d824617	0.06361025
146	0xbc6f6d56	-0.01461347
147	0x3cbb4dd1	0.022864254
148	0xbc3ffd7b	-0.011718149
149	0xbd388400	-0.04504776
150	0x3d874561	0.0660503
151	0x3db79310	0.08963597
152	0xbd07e4a9	-0.03317705
153	0xbafda0ee	-0.0019350329
154	0x3d4172e6	0.047228716
155	0x3d35afe7	0.044357207
156	0x3d4d22fc	0.05008219
157	0xbd8f6bcc	-0.070029825
158	0x3ded69d6	0.11592452
159	0x3d704504	0.05865957
160	0x3d3c28fd	0.045937527
161	0x3cbc664e	0.022998001
162	0x3d27b048	0.0409396
163	0x3e18253f	0.14857958
164	0x3db47624	0.08811596
165	0x3d89ab86	0.067221686
166	0x3d9cc4fe	0.07654761
167	0xbc066083	-0.008201721
168	0xbdcb3f2a	-0.09924157
169	0xbcc360a0	-0.023849785
170	0xbd21b569	-0.039479647
171	0x3d2b5c89	0.041836295
172	0x3c951e12	0.018202815
173	0x3d378790	0.044807017
174	0xbd9ecf70	-0.07754409
175	0xbc76b2b6	-0.015057256
176	0x3d587e92	0.05285508
177	0x3ce0ab4b	0.027425429
178	0xbb9d4344	-0.0047992785
179	0x3d79b8a0	0.060967088
180	0xbddfcf39	-0.109281965
181	0xbd0566b4	-0.03256865
182	0x3c16a0e7	0.009193636
183	0xbd2979f6	-0.041376077
184	0x3d6285f2	0.05530352
185	0xba883c74	-0.0010393993
186	0x3e19feb0	0.15038562
187	0xbe0fdbee	-0.1404874
188	0xbd4767d5	-0.048683006
189	0x3e35bd8b	0.17748086
190	0x3dbb4c6c	0.09145436
191	0x3d1c5eac	0.038176224
192	0xbcd76169	-0.026291566
193	0x3df06784	0.11738494
194	0xbd091526	-0.033467434
195	0xbd899586	-0.067179725
196	0x3c473791	0.012159244
197	0x3c175702	0.009237053
198	0x3c543174	0.012951244
199	0xbd278c86	-0.040905498
200	0xbc46613b	-0.0121081425
201	0xbd0acc47	-0.03388622
202	0xbe184269	-0.14869083
203	0xbe32ad3d	-0.17448898
204	0xbd86c0d9	-0.065797515
205	0x3d7ea8a8	0.062172562
206	0x3d10c99f	0.03534853
207	0x3ce2df7a	0.027694453
208	0x3db2209d	0.08697627
209	0xbd15c261	-0.036562327
210	0xbdf00caf	-0.11721169
211	0x3cf398b5	0.029735902
212	0xbdc5f337	-0.0966553
213	0xbda54ba4	-0.08071068
214	0xbdb6510a	-0.08902176
215	0x3ce39038	0.02777873
216	0x3cb97ee2	0.02264351
217	0x3c9bc12c	0.01901301
218	0xbd8704d4	-0.06592718
219	0xbd9baeed	-0.07601724
220	0xbe1ad672	-0.15120867
221	0x3e0d8666	0.138208
222	0x3dc474ec	0.095926136
223	0xbd2fe9dd	-0.04294764
224	0xba9e1543	-0.001206078
225	0x3d9f03b7	0.077643804
226	0xbcba4c25	-0.022741387
227	0xbc429b0b	-0.011877785
228	0xbdb55873	-0.08854761
229	0xbd27bed7	-0.040953483
230	0xbdb8f2ce	-0.09030686
231	0x3d61ef11	0.055159632
232	0xb9a6af9d	-0.0003179283
233	0xbc50053e	-0.012696562
234	0xbcb0411f	-0.021515427
235	0x3dd95991	0.106127866
236	0xbd2f1416	-0.042743765
237	0xbdd67de3	-0.1047323
238	0xbd3811b7	-0.04493877
239	0x3df52f52	0.11971916
240	0x3daca7b4	0.08430424
241	0xbc930878	-0.017948374
242	0xbca21402	-0.019784931
243	0xbd7742e7	-0.060366537
244	0x3de6314b	0.11239871
245	0xbd3126b8	-0.043249816
246	0x3d65bfdf	0.056091186
247	0xbab079cf	-0.0013464036
248	0xbd66d11a	-0.05635176
249	0xbbe08bd3	-0.006852606
250	0xbc5a8208	-0.013336666
251	0xbdde1af4	-0.10844985
252	0x3d7d8a3e	0.061899416
253	0xbdaee126	-0.085390374
254	0x3cba6310	0.022752315
255	0xbd3e150f	-0.0464068

fc2.bias f4 [84]
0	0xbdc429b9	-0.095782705
1	0xbd10eea1	-0.035383824
2	0x3ef756c0	0.48308372
3	0xbe1e57a8	-0.15463126
4	0xbdb3901c	-0.08767721
5	0xbc99a9ba	-0.01875769
6	0xbc8fce68	-0.017554477
7	0xbdd59ea2	-0.104306474
8	0x3ddfc26a	0.109257534
9	0x3e31a004	0.17346197
10	0xbd7cba0d	-0.06170087
11	0xbe2643c8	-0.16236794
12	0x3ef363fa	0.47537214
13	0xbe54c1d7	-0.20777069
14	0x3e4f9e5e	0.20275256
15	0x3e101770	0.1407144
16	0x3df5ab3a	0.119955495
17	0xbcec86b7	-0.02887283
18	0xbdbcb41d	-0.092140414
19	0xbda33bec	-0.079704136
20	0xbc49dc8b	-0.012320648
21	0xbdf058af	-0.11735665
22	0xbdd2d968	-0.10295373
23	0x3e2d9e4b	0.16954915
24	0xbddac921	-0.106828935
25	0xbcf91d46	-0.030409466
26	0x3e348e95	0.17632516
27	0xbc436c51	-0.01192768
28	0x3e8b91ef	0.27259776
29	0xbc15824e	-0.009125305
30	0x3e0f07f1	0.13967873
31	0x3d485efa	0.0489187
32	0x3dfffbf8	0.12499231
33	0x3d69a89c	0.057045564
34	0x3d2338a5	0.039848942
35	0xbda4a0fa	-0.08038516
36	0x3e21cfe5	0.15801962
37	0x3cedfa9e	0.029050168
38	0x3e034741	0.1282015
39	0x3d59d563	0.053182017
40	0x3f03e240	0.51517105
41	0xbdb86e7f	-0.090054505
42	0xbdb87b49	-0.0900789
43	0x3e9ade47	0.3024771
44	0x3ea45e9e	0.32103437
45	0xbe21a079	-0.15783872
46	0xbddd2257	-0.107975654
47	0xbd761785	-0.060081024
48	0x3e8cf6ea	0.2753213
49	0x3cbb8da6	0.022894692
50	0x3d9a5ff9	0.075378366
51	0x3e4d2f4f	0.20037578
52	0xbe164d9a	-0.1467804
53	0xbdd57b58	-0.104239166
54	0xbdfdfc18	-0.12401599
55	0x3e543490	0.20723176
56	0x3e5758d7	0.21029983
57	0x3e87dc0b	0.26535067
58	0xbd3deb54	-0.046367005
59	0x3e77755f	0.24165867
60	0xbd08debf	-0.033415552
61	0x3e45602d	0.1927497
62	0xbcd74aec	-0.026280843
63	0xbd7ccb6c	-0.061717436
64	0x3d98e2b2	0.07465114
65	0x3d9b2db5	0.07577077
66	0x3e6546ef	0.2239034
67	0xbd9324de	-0.07184766
68	0x3dc4e894	0.09614673
69	0xbdab5db1	-0.083674796
70	0xbb7a0132	-0.0038147685
71	0xbe00ddfe	-0.12584683
72	0x3d8917a6	0.06693964
73	0x3d9ad360	0.07559848
74	0x3e8a1861	0.26971725
75	0x3d98e3d2	0.07465328
76	0xbd0814d4	-0.03322299
77	0x3ea69aeb	0.32540068
78	0xbe55fed3	-0.20897989
79	0x3d81a1c8	0.063296854
80	0xbd2c462c	-0.04205911
81	0xbe8d0e8f	-0.2755017
82	0x3d1b11ef	0.0378589
83	0x3e0cdfd1	0.13757254

fc3.weight f4 [10, 84]
0	0x3e7b33b2	0.24531439
1	0xbdbc243c	-0.09186599
2	0x3e8d41ce	0.27589267
3	0x3e67b8e8	0.2262913
4	0x3e5b86d6	0.21438155
5	0x3e490d47	0.19633971
6	0x3dd0a65f	0.10187983
7	0xbc415c39	-0.011801773
8	0xbe22c1d1	-0.15894248
9	0x3e0e583e	0.13900849
10	0x3db11238	0.08646053
11	0xbe3fb77e	-0.1872234
12	0x3e3f0068	0.18652499
13	0x3d2148aa	0.03937594
14	0xbd599aa4	-0.053125992
15	0xbec0eaf6	-0.3767926
16	0xbe894829	-0.26812866
17	0x3e3dbe92	0.18529728
18	0x3de59fd7	0.11212128
19	0xbd90ff7e	-0.07079981
20	0x3d83c932	0.06434859
21	0xbd12d7fd	-0.035850514
22	0x3e00c627	0.12575589
23	0xbcd3d1ee	-0.025856938
24	0x3e6ad578	0.22932994
25	0x3dab6f8f	0.083708875
26	0xbe090dc3	-0.13384156
27	0xbea00076	-0.31250352
28	0x3eb1c456	0.34720105
29	0x3c47b6e9	0.012189605
30	0x3d27679c	0.040870294
31	0xbcf95174	-0.030434348
32	0xbc825d1e	-0.015913542
33	0xbe9fddfe	-0.31224054
34	0xbe2618f8	-0.16220462
35	0x3d7f366a	0.062307753
36	0xbdf33199	-0.118746944
37	0x3dc07b56	0.093985245
38	0x3e4690f1	0.19391228
39	0xbd7194c4	-0.058979765
40	0xbdeaa2e2	-0.11456849
41	0x3ce79460	0.028268993
42	0x3d766dbc	0.060163245
43	0x3e0b4828	0.13601744
44	0xbe228736	-0.15871891
45	0x3ea467c3	0.32110414
46	0x3e716e4e	0.23577234
47	0x3e1e0c71	0.15434434
48	0xbe1974c5	-0.1498595
49	0x3e04c2a8	0.1296488
50	0x3e54c041	0.20776464
51	0x3e21d6fa	0.15804663
52	0x3d95adda	0.0730855
53	0x3defc35d	0.117071845
54	0xbd9e1c77	-0.07720273
55	0xbe54d564	-0.20784527
56	0x3da1a9c4	0.07893708
57	0xbe9100d4	-0.28320944
58	0x3e08f8b4	0.13376123
59	0xbe8c39e0	-0.27387905
60	0xbd5bff91	-0.053710524
61	0x3ea84418	0.3286445
62	0x3e2467b0	0.16055179
63	0x3ddcf558	0.10788983
64	0xbdb6b4e6	-0.089212224
65	0xbbf1ad59	-0.007375401
66	0xbe94f926	-0.29096335
67	0x3e6dd33b	0.2322511
68	0x3e065433	0.13118057
69	0x3e0c73ef	0.137161
70	0xbe08525e	-0.1331267
71	0xbe1ff845	-0.15622051
72	0xbc5a6f97	-0.013332269
73	0xbd4becb8	-0.0497863
74	0xbe4b3b42	-0.19846824
75	0x3e0a2b85	0.13493164
76	0xbe1e73ac	-0.15473813
77	0xbdd3e9b1	-0.103473075
78	0x3df61529	0.12015755
79	0x3e73cdb0	0.23808932
80	0x3dd7802e	0.10522495
81	0x3df7546d	0.1207665
82	0x3e91c0d5	0.28467432
83	0xbe6d5651	-0.23177458
84	0xbd69efbb	-0.05711339
85	0x3d5c6887	0.053810623
86	0xbe83a36f	-0.25710627
87	0x3d96190a	0.073289946
88	0x3d2c4b41	0.042063955
89	0x3e7fb725	0.24972208
90	0xbc7d18a2	-0.015447767
91	0x3db40ac4	0.08791116
92	0xbe15b4d0	-0.14619756
93	0x3e01c1e0	0.12671614
94	0xbe2052be	-0.15656564
95	0x3e819662	0.25310045
96	0x3c325480	0.010884404
97	0x3e1e1b7d	0.15440173
98	0xbe4336b6	-0.1906384
99	0x3e1d18e8	0.15341532
100	0x3dccb37d	0.09995172
101	0xbe046025	-0.12927301
102	0x3bd5d0d0	0.0065251365
103	0x3dfda780	0.12385464
104	0x3e87bec2	0.26512724
105	0x3d371045	0.04469325
106	0xbb69f4c5	-0.0035698873
107	0xbdb23b38	-0.08702701
108	0xbd5f69e4	-0.054544345
109	0xbbf92f91	-0.0076045473
110	0xbd7c1938	-0.061547488
111	0x3e139d2b	0.14415424
112	0x3e0217aa	0.1270434
113	0xbe2aee96	-0.16692576
114	0xbdd8cd51	-0.10586036
115	0xbe0789c5	-0.13236149
116	0x3d923551	0.071390755
117	0xbd4802b1	-0.04883069
118	0x3d178365	0.036990542
119	0x3d0284fb	0.0318651
120	0x3d5584ce	0.052128606
121	0x3dbac8e8	0.09120351
122	0xbdae89f7	-0.085224085
123	0xbdf6249a	-0.120187
124	0xbe52d85a	-0.20590344
125	0xbd5ef424	-0.05443205
126	0xbd059601	-0.032613758
127	0xbe98fec2	-0.29881865
128	0xbe03ee21	-0.12883808
129	0xbd6d4168	-0.057923704
130	0x3d9c939c	0.07645342
131	0x3d09df52	0.03366024
132	0xbe94353b	-0.28946862
133	0xbe1b82d9	-0.15186633
134	0xbde307c5	-0.11085466
135	0x3ea1ac31	0.31576684
136	0x3d3ef067	0.046615984
137	0xbd72b3af	-0.05925339
138	0xbd9c0e4e	-0.07619916
139	0xbf0b3dd5	-0.54391223
140	0xbdb23194	-0.087008625
141	0x3da8dacb	0.082448564
142	0xbd30dae3	-0.043177497
143	0xbe07fc78	-0.13279903
144	0x3d8a344a	0.067482546
145	0xbea4e6ff	-0.32207486
146	0xbe5df456	-0.21675238
147	0xba836c24	-0.0010026735
148	0x3d965bc2	0.0734172
149	0x3eec1a3a	0.4611376
150	0xbe373e44	-0.17894846
151	0xbe7649f4	-0.24051648
152	0xbe710302	-0.23536304
153	0x3ec5acfd	0.38608542
154	0xbd42d36e	-0.047564916
155	0x3e7ce428	0.2469641
156	0x3dd6eb5c	0.1049411
157	0xbd9fa01d	-0.07794211
158	0xbe623062	-0.22088769
159	0xbd4833ba	-0.048877455
160	0x3e6bcffa	0.23028556
161	0x3db9bb72	0.090689555
162	0x3e92bc16	0.28659123
163	0x3d8534f0	0.06504238
164	0x3da659fb	0.08122631
165	0x3ebd7b60	0.3700819
166	0xbddc069c	-0.10743448
167	0xbdca675b	-0.09882995
168	0x3cf7e2d2	0.030259524
169	0xbbfe71f0	-0.0077650473
170	0xbdbf9474	-0.09354487
171	0x3ea823ee	0.32839912
172	0xbe3097d1	-0.17245413
173	0xbc3acf1a	-0.011401916
174	0x3bead62a	0.0071666436
175	0x3dbfd53f	0.09366845
176	0xbd976d42	-0.07393886
177	0x3d942dd4	0.072353035
178	0xbe4bd99e	-0.19907233
179	0xbe2a357d	-0.16621967
180	0x3e39e31f	0.18153046
181	0xbd853436	-0.06504099
182	0x3e505ba2	0.20347455
183	0x3d353124	0.044236317
184	0x3e2f797f	0.17136191
185	0x3d8b7fbf	0.06811475
186	0x3de9bd18	0.1141302
187	0x3c755d29	0.014975824
188	0xbe826b38	-0.25472426
189	0x3e718b48	0.23588288
190	0x3d556b20	0.052104115
191	0x3e2d7931	0.16940762
192	0xbe496956	-0.19669089
193	0xbd0826f3	-0.03324027
194	0x3c26ce7e	0.0101810675
195	0x3d321783	0.043479454
196	0xbe60ed49	-0.21965517
197	0x3e88d6ad	0.26726285
198	0xbe6e893b	-0.23294537
199	0x3e131fae	0.14367554
200	0xbe92181f	-0.28534028
201	0x3e70b5a3	0.23506789
202	0x3e27fb9d	0.16404577
203	0x3e4e4631	0.20143963
204	0x3e90e696	0.28300923
205	0xbe35f3f1	-0.17768838
206	0x3de692dc	0.1125848
207	0xbe0748a6	-0.13211307
208	0xbdbdd157	-0.09268444
209	0x3d2953ca	0.041339673
210	0x3daa5729	0.08317406
211	0x3dd95d6a	0.106135204
212	0x3e209274	0.15680867
213	0x3eac9d72	0.3371387
214	0x3cb74924	0.022373743
215	0xbe210eb1	-0.1572826
216	0x3e0a77fd	0.13522334
217	0x3e969fff	0.29418942
218	0xbe0b7754	-0.13619739
219	0xbe7b9c84	-0.24571425
220	0xbdd3782a	-0.10325654
221	0x3dbb5efe	0.09148978
222	0x3e9d4042	0.30713087
223	0x3e76e778	0.24111736
224	0xbdc57392	-0.09641184
225	0xbdd46b25	-0.10371999
226	0x3c2fba8f	0.010725631
227	0x3e78f5f6	0.24312577
228	0x3df327ec	0.11872849
229	0x3e8be98e	0.27326626
230	0x37c8e3a9	2.394787e-05
231	0x3ca9e0a8	0.020737007
232	0xbe906973	-0.2820545
233	0xbddc9d13	-0.10772147
234	0x3d4c994f	0.049950894
235	0x3ef960a1	0.48706535
236	0xbd86f297	-0.06589239
237	0x3e67ea93	0.22648077
238	0x3d0c2616	0.03421601
239	0x3d327436	0.04356786
240	0xbd9653d9	-0.073402114
241	0xbcf91fc0	-0.030410647
242	0xbd88ce40	-0.06679964
243	0xbe3c89c8	-0.18411934
244	0xbe0a6526	-0.13515148
245	0x3e209642	0.15682319
246	0x3dc92556	0.098215744
247	0xbbf3618d	-0.0074274004
248	0xbe6b052a	-0.22951189
249	0xbd0e1f24	-0.034697667
250	0x3bdac1ba	0.006675926
251	0xbe809dc5	-0.2512037
252	0x3d5baf51	0.05363399
253	0xbd7b6a8c	-0.061380908
254	0xbe309d9c	-0.17247623
255	0xbdd0534e	-0.10172139

fc3.bias f4 [10]
0	0xbd6c2fdd	-0.057662833
1	0xbf39e306	-0.72612035
2	0xbde58219	-0.11206455
3	0x3e954fc9	0.29162434
4	0x3f3a3e79	0.72751576
5	0xbde90794	-0.113783985
6	0xbe5f739f	-0.2182145
7	0xbe777ffe	-0.24169919
8	0x3f19de54	0.6010487
9	0xbe871af5	-0.26387754
